code/mae_model2.pth (torch, 978210 bytes, 20 tensors)

encoder.0.weight f4 [128, 60, 5]
000000 5d 6a 3f 3c a7 c7 32 bc da 66 87 b9 b3 78 99 3c
       0.011683074 -0.010911859 -0.00025825837 0.018734312
000010 6d 65 8d bc d9 64 08 3d 97 ed a9 bc 1f cf a9 bc
       -0.017260278 0.0332993 -0.020743174 -0.020728646
000020 c5 6f 0d 3d 47 60 cf 3a 74 6d e0 bb e0 44 9a 3b
       0.03453042 0.001582154 -0.0068489853 0.0047079176
000030 1d 3c e0 3b 17 31 ad bc 05 b4 1a 3c 79 73 89 3c
       0.0068431036 -0.021141572 0.009442334 0.016778694
000040 2d 78 8d 3c 59 91 10 bc 3b db 30 bc 9e 94 23 3b
       0.017269218 -0.008823716 -0.010794456 0.002496041
000050 7c 3c 15 bd c9 37 95 3c 9f 4a c9 3c fa 0c a9 bc
       -0.036434636 0.018215077 0.024571715 -0.02063607
000060 14 55 85 3b d3 04 14 3c 9b 49 4c bc a7 58 44 ba
       0.00406898 0.009034353 -0.012468721 -0.0007490017
000070 c2 13 f4 3c 8b 14 0f bc 37 97 af 3c b9 04 26 bc
       0.029794578 -0.008732925 0.02143441 -0.010132962
000080 d4 68 25 3c f4 a9 1f bd 67 3a fa 3c c0 6a 39 3c
       0.010095794 -0.03898044 0.030545427 0.011316955
000090 88 49 ab bc 8f ed b5 3c 09 cc c1 3c 45 db 06 bd
       -0.020909086 0.022208003 0.023656862 -0.032923955
0000a0 2d 72 17 3c 24 ff bc bc e5 f8 07 3d e3 b0 70 3b
       0.00924353 -0.02307088 0.03319635 0.0036726526
0000b0 38 f8 c0 bc 8a 80 17 bd bc 22 59 3a 16 f5 e7 bc
       -0.02355586 -0.03698782 0.0008283069 -0.028315108
0000c0 b4 cf 55 bc 92 07 3e bb e9 65 9a 3c bf e2 22 bd
       -0.013050009 -0.0028996211 0.018847423 -0.039767023
0000d0 ab d5 35 3d 4b 22 e6 3b 7e 85 d1 bc e8 6f e6 bb
       0.044393223 0.007023131 -0.02557635 -0.0070323832
0000e0 ad e1 5f 3b 21 de 07 bd 8c 51 4d bc 38 b2 8d 3b
       0.0034161613 -0.033170823 -0.012531649 0.004324224
0000f0 b0 1f 4a bd 7e 93 9d bc 9e 61 69 3d c2 0a a6 bc
       -0.049346626 -0.019235369 0.05697786 -0.020268802
000100 f2 95 da bb 78 d2 d5 bc 1d 37 27 3d 90 13 11 bc
       -0.006670707 -0.026101336 0.040824044 -0.008854762
000110 be 85 03 bd 95 a9 8e 3c 24 35 1a bc 7d 88 3a 3d
       -0.03210997 0.017414847 -0.009412084 0.04554032
000120 99 b0 75 bd 80 28 72 3c df dc 97 bb 46 c2 be 3c
       -0.05998287 0.014780164 -0.004634484 0.023285996
000130 55 4c da 3b ba 7e fb bc 3f bd 12 3d 24 84 21 3d
       0.0066619315 -0.030700076 0.03582501 0.03943266
000140 4c 13 11 3d 5f 76 69 3d 69 63 37 bd d6 1a d1 3a
       0.035418794 0.056997653 -0.04477254 0.0015953432
000150 b5 94 68 bc 5e d9 68 bd c5 86 8c 3d 3b f8 89 bd
       -0.014195611 -0.056847923 0.06861643 -0.06736799
000160 2e 10 0f 3d 9b e9 9b 3a d8 29 5a 3d 61 6b 1d bd
       0.03492754 0.0011895181 0.05326256 -0.038432483
000170 35 e1 ea ba 0d b1 27 3d 4a cd 03 3b cb a1 d4 bc
       -0.00179199 0.040940333 0.0020111375 -0.025956055
000180 c5 58 ee 3c 9f 6d a9 bd ce 3b d7 3b 44 b9 9a 3c
       0.029095063 -0.08272862 0.0065684086 0.01888717
000190 2d 7e d8 bc 56 29 1e bc 7d 0f e7 3c b2 f0 53 3c
       -0.026427353 -0.00965341 0.028205628 0.012935804
0001a0 50 1e 00 bd e3 69 24 bc b0 ce 68 3c d1 ae b1 bd
       -0.03127891 -0.010035011 0.014209434 -0.08675922
0001b0 fc 70 e3 bb 4b 8d e7 3a 7e 36 cb 3c b9 73 0e 3d
       -0.006940959 0.001766601 0.024806257 0.03477833
0001c0 99 61 35 bd 8c 5b c9 3c b2 81 bf 3b fb 20 a6 ba
       -0.04428253 0.024579786 0.0058443183 -0.0012674624
0001d0 d6 7f 9b 3c b4 81 53 3b c3 9c f7 bc c3 95 29 3c
       0.018981855 0.0032273354 -0.030226117 0.010350647
0001e0 cf 26 1c 3c 53 92 03 3c 8f 4a 02 bd e3 82 de bc
       0.009530737 0.008030492 -0.031809386 -0.027162021
0001f0 c1 fc 50 3a 1d a3 8e bc 76 b3 19 3d ae b2 91 bd
       0.00079722336 -0.017411763 0.037524663 -0.071141586
000200 3a ea ff 3c be 82 9d 3b cb db 33 bd 8a 27 42 3d
       0.031239618 0.0048068454 -0.043910783 0.04740099
000210 ef db 4c bd b1 4a c6 3c fc 35 69 bb f3 95 89 3c
       -0.050014433 0.024205538 -0.0035585156 0.016795134
000220 d1 94 14 3c dc 79 d5 bd f2 a4 0f 3d 58 72 2e 3d
       0.009068684 -0.104236335 0.035069413 0.042589515
000230 a0 29 75 3c 6e 22 96 3c a2 8c 0d bd ca df 53 bc
       0.014963537 0.018326964 -0.034557946 -0.012931773
000240 1e 69 9c 3a 70 87 b5 3c 5a 3f 9a bb 87 6a 5d 3b
       0.0011933183 0.022159308 -0.004707259 0.003378542
000250 55 6e ba 3c 0a a6 ac 3c a5 cd 9c bc 57 b4 ab 3b
       0.022757689 0.021075267 -0.019141028 0.005240004
000260 ff 21 ae bb dd 09 b8 3c fa 35 1f bb 38 5b 5a bc
       -0.0053141112 0.02246564 -0.0024293647 -0.013327412
000270 a1 00 83 bc ff b5 4a 3c 47 ed 0e 3d 2a 9e e3 bc
       -0.01599151 0.012372493 0.034894254 -0.02778538
000280 e0 70 53 bc cf 7f 1a bb 3b ba de bb a7 12 8f 3c
       -0.0129053295 -0.0023574715 -0.0067971027 0.017464949
000290 64 41 d2 bb 2c ff b3 3c 17 eb 2b 3b 5a c3 5c bc
       -0.0064164866 0.021972261 0.0026232654 -0.01347431
0002a0 94 27 ef bc df 64 b6 3c e8 72 cf bb d2 8e 90 bc
       -0.029193677 0.022264896 -0.0063308366 -0.017646227
0002b0 67 dd 93 3c ff 0d 31 bb 7b 7a ab 39 79 a9 c1 3b
       0.018049909 -0.00270164 0.00032706917 0.0059100953
0002c0 ca 4a 9f 3b 4e 5a b0 bc ed 0c fa 3b ce ab a3 3c
       0.0048612105 -0.021527436 0.0076309354 0.019979384
0002d0 97 90 b6 bc 80 8d 10 3c 24 80 1f 3d 70 c4 8e bc
       -0.022285743 0.008822799 0.038940564 -0.017427653
0002e0 72 12 70 bc 29 ae 29 bc 8e bc 0b bc 3e 0d 07 3d
       -0.014652835 -0.010356464 -0.008528842 0.032971613
0002f0 97 07 43 bc e4 22 0a bc 42 ef 85 bc 0a 70 5f 3d
       -0.011903665 -0.00843117 -0.016349439 0.05455021
000300 e3 7a 09 bd 47 91 a1 bc d5 f0 e1 3c c4 41 11 3d
       -0.03356446 -0.019722594 0.027580658 0.03546311
000310 86 72 e9 bc 77 d2 56 bd 8c 88 80 3d 4a 3b 4e bc
       -0.028496992 -0.05244681 0.06276044 -0.012587378
000320 70 1c e5 3b 35 da 08 3d a8 14 57 bd b3 4c 99 3b
       0.0069919154 0.033411223 -0.052509934 0.0046783327
000330 ec fb 76 3c ef b9 e0 3c 46 e7 95 3c a2 c1 b8 bd
       0.015074711 0.02743241 0.018298756 -0.090213075
000340 86 f0 8c 3d 6c 69 f4 bc 78 86 de bc 3d b8 90 3d
       0.06881814 -0.029835425 -0.02716373 0.07066391
000350 3f 75 95 bd ea 08 f3 bb 6f 16 6f 3c 19 bf f3 bc
       -0.072977535 -0.007416834 0.014592751 -0.029754208
000360 40 d2 a8 3d d6 ba 97 bd 86 87 8c bb 44 e9 86 3b
       0.08243227 -0.07408683 -0.0042886166 0.004117163
000370 32 82 f7 3b a4 b6 4b bc d3 6c 77 bd 07 9c 4b 3d
       0.0075533623 -0.012433682 -0.060406517 0.049709346
000380 01 0c 14 3c 8a d9 78 3b 9c 86 46 3c 5c 2e 9e bc
       0.009036065 0.003797146 0.012117054 -0.019309215
000390 b2 11 d3 3b d4 3a 36 3d 61 3f 96 3b c0 75 5d 3d
       0.0064413184 0.044489697 0.004585192 0.054067373
0003a0 18 9c c8 bd 3e b8 87 3d f9 16 88 3b 4a c2 4e bb
       -0.097953975 0.06626938 0.004153129 -0.003154891
0003b0 2b 48 7d 3d 7d a4 d5 bd 9a c9 a4 bc 96 b0 23 3d
       0.061836403 -0.10431764 -0.020115662 0.039963327
0003c0 e2 76 19 bd 43 21 90 3d 33 0c ec bc 37 92 ec bb
       -0.03746689 0.07037594 -0.02881441 -0.0072195786
0003d0 9c ba ac bb 50 67 09 3c f4 56 17 3d b2 da 73 bd
       -0.005271269 0.008386448 0.03694816 -0.059534736
0003e0 6a 69 ce 3c 37 81 1d 3c 01 4d 35 3c cc ba 00 3d
       0.02519675 0.009613327 0.011065722 0.031428143
0003f0 dd 72 89 bd c6 32 86 3c 8d e7 42 bc 69 3e c2 3c
       -0.067113616 0.016381633 -0.011896026 0.0237114

encoder.0.bias f4 [128]
000000 f6 1d ca 3b f2 b2 0e bd 95 1b 59 bd 0d 65 ac 3b
       0.0061681224 -0.034838624 -0.05300482 0.0052610696
000010 f5 47 a5 3c af 46 55 3c db ee b9 39 22 19 58 3c
       0.020175913 0.013017341 0.0003546391 0.013189586
000020 5c 71 44 3d 57 7b e9 3c 6c 37 b2 3c aa 58 fa 3c
       0.04795967 0.028501196 0.021754943 0.030559856
000030 b0 54 16 3d d1 1f 87 3c 90 19 19 bb 13 48 fc bc
       0.036701858 0.016494663 -0.0023361184 -0.030796086
000040 fe 4a 5a bd cc b1 40 bc 89 61 8b 3c b7 23 2d bd
       -0.053294174 -0.01176114 0.017014282 -0.04227039
000050 5b 87 ca bc 5a dc 40 bd a6 e6 96 bc b1 88 8e 3a
       -0.024722746 -0.047085144 -0.018420529 0.0010874477
000060 8d 71 81 bc 3b f0 25 bb 4d 03 82 3c ce 04 45 bc
       -0.015801216 -0.002532019 0.015870715 -0.012025071
000070 f6 a0 3f 3d 3b b7 eb 3c 5c c5 92 39 7a f3 aa 3c
       0.046784364 0.028773895 0.00027994334 0.020868052
000080 6c 44 28 3d da cc 5d 3d c6 37 b1 38 33 fd 55 bd
       0.041080877 0.05415044 8.450406e-05 -0.052243423
000090 e8 4e 88 3c 06 7e 54 bd 5d 4f 84 bc 4f 6f e1 3c
       0.016639188 -0.051877998 -0.016151125 0.027518896
0000a0 e9 89 4d 3c 22 21 69 3d f6 a9 72 3c d3 e4 97 bb
       0.012545087 0.056916364 0.01481103 -0.0046354323
0000b0 0e a8 bd 3c 94 cb ec 3b 6b c1 90 3c 9d 18 2d bd
       0.023151424 0.007226417 0.017670354 -0.0422598
0000c0 dd a4 82 bc ea a4 50 3b e9 0f dc b8 b0 d7 30 3d
       -0.015947754 0.0031836578 -0.00010493381 0.043174446
0000d0 9b 79 8a bc 56 fe 0c 3c 93 63 c0 3c 7e 81 8c bc
       -0.01690369 0.00860556 0.02348498 -0.01715159
0000e0 a9 02 9a 3c 29 74 92 bc 62 60 3d 3c 4d 5e 35 bd
       0.018800097 -0.017877655 0.011558624 -0.044279385
0000f0 47 8c 27 3b a7 d2 c3 3b cf e6 79 bc 7c ac ba 3c
       0.002556579 0.0059760395 -0.015252783 0.022787325
000100 46 cb 5d bd 4e 91 04 3d f2 f9 c7 3c 46 a7 c7 bc
       -0.054148935 0.032365136 0.024411175 -0.024371754
000110 b4 b1 47 3d 94 a8 3d 3c 8e da e8 3c d8 2b d8 bc
       0.048753455 0.011575837 0.028424527 -0.026388094
000120 50 92 54 bc 93 a7 4e 3d 66 51 97 bc fe e8 3c bd
       -0.012974337 0.05045278 -0.018471431 -0.046120636
000130 f5 bd 67 3c 99 43 1d bc eb a8 17 3d 4c 99 2e 3d
       0.01414441 -0.009598636 0.037026327 0.042626664
000140 37 bb 56 bd 00 39 55 3c e8 6b 6c 3d b5 35 e8 bc
       -0.052424636 0.013014078 0.057720095 -0.028345922
000150 b8 06 ac 3b 51 d8 e5 3c 4d ec be 3b 8e 6f 01 bd
       0.0052498244 0.02805725 0.005826509 -0.031600527
000160 ba f2 42 bd 61 6a ba bc 92 e9 a1 bc c6 c4 cb bc
       -0.047594763 -0.022755804 -0.019764695 -0.024874102
000170 53 ad 39 3c 47 1b 2a bd 2b e8 1b 3d a5 94 47 3d
       0.011332828 -0.04152992 0.03806321 0.048725743
000180 07 0e da bc b1 86 4c bd b3 fc 27 3d 46 ab 9d 3c
       -0.026618017 -0.04993314 0.041012477 0.019246709
000190 2c 1e 2d 3d 14 a5 3b 3d 4d 9d 5c bd 47 24 b0 bc
       0.042265102 0.045811728 -0.05386095 -0.021501673
0001a0 ba a1 0c bd 93 73 62 3d 8a 29 a8 bc 35 29 1d bd
       -0.034333922 0.055286 -0.02052762 -0.038369376
0001b0 c0 e5 4d bd 78 63 ef bc 83 a3 3e 3d ad 7d 58 bb
       -0.050267935 -0.029222235 0.046542656 -0.0033033893
0001c0 06 0f d4 3c 30 cd fb 3c b7 47 05 bd 05 7e c3 3c
       0.02588607 0.03073749 -0.032539096 0.023863802
0001d0 96 67 34 3d 9b 01 b4 bb 11 81 34 3c a6 49 af 3c
       0.0440441 -0.0054933554 0.0110171 0.021397423
0001e0 7b 7a c7 bc 1f 2b 61 bd 9b da 65 bd 9b c4 12 bd
       -0.024350395 -0.054972764 -0.05611668 -0.03583203
0001f0 64 b0 0f 3d f8 08 46 bb 2e de 4d 3d 6c b8 3d 3d
       0.03508033 -0.0030217748 0.050260715 0.046318457

encoder.1.weight f4 [128]
000000 2d 03 94 3f bc 0c 74 3f c3 52 76 3f 65 5b 7d 3f
       1.1563469 0.9533193 0.96220034 0.9896758
000010 a1 45 7f 3f d9 98 83 3f 5a f2 77 3f d7 a2 7c 3f
       0.9971562 1.028102 0.96854174 0.98685974
000020 e2 44 79 3f 6f 4a 82 3f b3 91 93 3f 31 66 85 3f
       0.9737073 1.0178965 1.1528839 1.0421811
000030 37 15 90 3f 58 ff 7b 3f a5 ab 86 3f 9a ce 76 3f
       1.1256474 0.984365 1.0521132 0.96409
000040 6e 9d 7b 3f 66 cb 78 3f f4 ac 7f 3f 24 0a 7d 3f
       0.98287094 0.9718536 0.9987328 0.988436
000050 70 7f 7e 3f 42 4a 74 3f e9 d4 7d 3f 56 b1 83 3f
       0.99413204 0.9542581 0.99153 1.0288494
000060 0f bd 7e 3f 94 ab 7e 3f 99 46 81 3f 85 51 7c 3f
       0.9950723 0.9948056 1.009967 0.9856189
000070 83 f2 7b 3f cd c6 7c 3f 4a ba 84 3f a9 ae 7a 3f
       0.9841692 0.98740846 1.0369351 0.9792276
000080 2e 4b 77 3f 5e 9e 79 3f 7a ae 80 3f b2 4d 76 3f
       0.9659909 0.97507274 1.0053246 0.96212304
000090 c7 d8 7e 3f b7 24 81 3f e8 1e 7d 3f 63 ea 7d 3f
       0.99549526 1.008933 0.98875284 0.9918577
0000a0 71 60 7f 3f 8b b9 7d 3f 21 01 7e 3f 97 af 7e 3f
       0.9975653 0.9911124 0.9922047 0.9948668
0000b0 21 ae 77 3f 9d 6f 7d 3f ea 70 76 3f b4 47 77 3f
       0.96750075 0.98998433 0.96266043 0.96593785
0000c0 80 66 7e 3f 19 d3 79 3f e7 b1 75 3f 51 a2 7e 3f
       0.9937515 0.97587734 0.9597458 0.99466425
0000d0 5a b0 75 3f d2 97 77 3f 08 a8 8f 3f cb 33 7b 3f
       0.95972216 0.96716034 1.1223154 0.98125905
0000e0 1b be 7c 3f ca 08 87 3f c2 b7 89 3f 1f 7e 77 3f
       0.9872758 1.0549557 1.0759203 0.9667682
0000f0 47 85 72 3f a0 64 7b 3f 80 6e 7f 3f bf 9c 7e 3f
       0.94734615 0.98200417 0.99777985 0.99457926
000100 57 8c 7e 3f 09 23 76 3f 97 7d 7f 3f a6 fe 7e 3f
       0.9943289 0.9614721 0.9980101 0.9960731
000110 a6 d0 7c 3f 5b 5d 82 3f 92 05 78 3f 05 c2 7a 3f
       0.9875587 1.018474 0.968835 0.979523
000120 be 7d 7f 3f c2 74 86 3f 26 09 78 3f 98 a6 7f 3f
       0.9980124 1.0504382 0.9688896 0.99863577
000130 a1 78 7c 3f 35 c4 78 3f a6 82 7e 3f 6e 33 74 3f
       0.98621565 0.9717439 0.99418104 0.95390975
000140 ca 81 7a 3f ba e5 8b 3f 81 c3 82 3f 34 ba 83 3f
       0.9785429 1.0929482 1.0215913 1.02912
000150 d2 c0 8a 3f ab 21 7a 3f 6d 0b 7e 3f 74 6e 7a 3f
       1.0840094 0.97707623 0.99236184 0.9782479
000160 18 c3 7a 3f 06 19 7c 3f 60 20 76 3f 60 0f 82 3f
       0.9795394 0.9847568 0.9614315 1.0160942
000170 bc c1 7b 3f 9c 46 71 3f c8 9f 9d 3f 17 7d 82 3f
       0.9834249 0.94248366 1.2314386 1.0194424
000180 04 5d 84 3f 94 7c 7a 3f d7 7d 75 3f dd a5 7f 3f
       1.0340886 0.9784634 0.9589514 0.9986246
000190 98 16 7e 3f fb 22 7d 3f 9a ae 6e 3f 00 d8 7c 3f
       0.99253225 0.988815 0.9323517 0.9876709
0001a0 e7 2b 7a 3f 5a a1 77 3f 21 ab 76 3f 75 76 84 3f
       0.9772324 0.9673058 0.9635487 1.034865
0001b0 ec cd 7e 3f bc ef 7b 3f 0e 16 77 3f 0a 8b 7b 3f
       0.9953296 0.9841268 0.9651803 0.9825903
0001c0 62 d8 77 3f 4a 80 78 3f 20 e0 7d 3f d7 b8 75 3f
       0.9681455 0.97070754 0.9917011 0.9598517
0001d0 c3 16 80 3f f3 fc 77 3f e8 34 75 3f b0 10 7d 3f
       1.0006946 0.96870345 0.95783854 0.9885359
0001e0 cb 2a 81 3f 49 8a 74 3f 1c 0e 74 3f 71 a6 78 3f
       1.0091184 0.95523506 0.9533403 0.9712897
0001f0 ef ad 7e 3f 0c 10 80 3f 25 89 74 3f 8e 67 79 3f
       0.9948415 1.0004897 0.95521766 0.97423637

encoder.1.bias f4 [128]
000000 40 c6 4f 3e a2 10 cb 3d 3d bf 16 3d b3 a3 98 bc
       0.2029047 0.09915282 0.036803473 -0.018632745
000010 48 82 3e 3d 3d e4 35 3e 82 2f 98 3c 37 28 62 3e
       0.046510965 0.17762847 0.018577341 0.22085653
000020 45 44 0a bd 0c d5 e4 bb 20 81 c3 bc 76 31 2c 3d
       -0.033756513 -0.006983405 -0.023865283 0.042039357
000030 35 36 a6 bc 18 6f fa 3c ac 47 4c 3e 74 75 16 3d
       -0.02028952 0.030570552 0.19949216 0.036733106
000040 83 7b a5 3c 27 e7 9d 3d 5b 15 a1 3d e2 83 b8 3d
       0.020200497 0.077101044 0.07865401 0.0900953
000050 9d 98 1c 3d e3 38 a3 3d 19 76 6f 3d a4 f5 09 3e
       0.03823148 0.07969835 0.058462236 0.1347261
000060 97 81 2c bc 4c 66 9c 3d 25 a0 35 3d d5 9d 94 3d
       -0.0105289435 0.07636699 0.04434218 0.072566666
000070 ce 26 a2 3d f8 da ea 3d f8 4f e7 3d e9 7c 9a 3d
       0.07917558 0.11467546 0.1129455 0.07543356
000080 e7 21 60 3c 53 2f 3e 39 82 e8 72 3d dd fa 08 3d
       0.013679958 0.00018137442 0.059303768 0.033442367
000090 91 5a c9 3d 7e 16 3a 3d 3a 55 b2 3c de 73 d5 3d
       0.09831727 0.045431606 0.021769155 0.104224905
0000a0 a9 14 c1 3d e1 c0 c8 3d de 80 1a 3d 2c 27 a2 3d
       0.09427769 0.09802414 0.037720554 0.07917628
0000b0 97 99 f4 3c 38 34 9f 3d 12 a2 13 3c 8e f1 9a 3b
       0.029858394 0.07773632 0.009010809 0.0047285026
0000c0 da c3 ba 3b 97 13 e5 3c 03 5a f6 3c fc bb 1e 3e
       0.005699617 0.027963443 0.030072218 0.15501398
0000d0 99 c1 29 3c ca a2 e6 3d 61 30 42 3e c0 7c 9c bc
       0.010361099 0.11261518 0.18963768 -0.019102454
0000e0 e9 b8 8f 3d 22 74 ab 3d 60 f7 f1 3d 66 e6 38 bc
       0.07017691 0.0837176 0.11814761 -0.0112854
0000f0 d6 9f 93 3c 1b 8a e9 3d b2 27 cb 3d 18 1f af bd
       0.018020552 0.11403295 0.09919681 -0.085508525
000100 a7 04 6e bc f1 e2 ca bc 09 30 30 3e 9a cb 13 bd
       -0.014527476 -0.024766417 0.17205824 -0.03608284
000110 17 61 b0 3d 3d 2a 28 3e fd 43 95 3d 6f 7c 1b 3e
       0.086122684 0.16422363 0.07288358 0.15184186
000120 c3 b6 49 3d 62 4e 9a 3d 99 f2 17 3d ee 53 0f 3e
       0.04924656 0.075344816 0.037096594 0.1399686
000130 94 9f b0 3d 58 72 97 bc 3e e6 9d 3d 2d 71 28 bb
       0.08624187 -0.01848714 0.07709931 -0.0025702224
000140 99 e2 cc 3d 6c f9 69 3e 5a 50 e9 3d d4 05 7e 3d
       0.100041576 0.22849053 0.11392279 0.062017277
000150 d2 27 04 3e f2 f2 59 3d 5f 1a 1f 3e 52 92 2c 3d
       0.12905815 0.053210206 0.15537404 0.04213173
000160 81 24 14 3a 26 6a ea 3d 82 73 2c 3d c2 09 f5 3b
       0.00056511915 0.114460275 0.042102344 0.00747797
000170 e9 c2 60 3d 01 b1 4a bd 5e 87 3b 3d e6 bf bb 3c
       0.05487338 -0.04948521 0.045783393 0.022918653
000180 33 f8 d4 3c 24 44 1b bc 2f 25 a8 3d 89 3b b3 3d
       0.025997257 -0.009476695 0.08210217 0.0875159
000190 a2 e4 0b 3e 34 e5 96 3d 4e cb 01 bb 66 6e 4a 3e
       0.13661435 0.07367936 -0.0019805017 0.19768676
0001a0 ab 61 c3 bc 70 35 7e 3d 31 81 df 3c 6e 0a 83 3e
       -0.023850283 0.06206268 0.027283283 0.25593895
0001b0 b2 97 6a 3e d6 4b ad 3d 12 68 22 3d 1f 06 d6 3c
       0.2290943 0.0846173 0.03965003 0.026125966
0001c0 a6 c5 a7 3d 55 3a a9 3c a8 15 85 3d ae 7b 85 ba
       0.08191995 0.020657698 0.06498271 -0.0010183954
0001d0 c2 f7 89 3d e5 95 81 bc 9e 60 98 bc b8 17 e3 3d
       0.06736709 -0.015818546 -0.018600758 0.11088508
0001e0 2c 2b 0d 3e 73 36 9d 3c 82 69 0f bc 76 e8 9b 3d
       0.13786 0.019191002 -0.008753182 0.07612698
0001f0 af 7e a8 3d 52 07 a7 3d 42 4a b4 bc e0 70 ad 3d
       0.08227288 0.08155693 -0.022008065 0.08468795

encoder.1.running_mean f4 [128]
000000 1e 81 ce 3b e8 0d 11 bd 73 a3 5b bd 01 bc b0 3b
       0.006302013 -0.035413653 -0.053622674 0.0053935056
000010 26 73 a8 3c 8d d5 53 3c 74 df a8 3a 53 5c 51 3c
       0.02056272 0.012929332 0.0012883977 0.012778359
000020 7e 3f 43 3d 5f fc e7 3c 88 9d b2 3c 44 71 fa 3c
       0.047667973 0.028318582 0.021803632 0.030571587
000030 e8 96 16 3d 7b fe 82 3c 46 a9 1b bb de 96 f9 bc
       0.03676501 0.015990486 -0.0023752018 -0.030467447
000040 47 09 5a bd 61 5a 33 bc 8b b5 8c 3c 41 be 2e bd
       -0.053231504 -0.010946841 0.01717641 -0.04266191
000050 af 57 cd bc c1 c6 40 bd b4 80 96 bc 58 64 9a 3a
       -0.025066225 -0.047064546 -0.018371917 0.0011779172
000060 3b eb 82 bc 7a 70 45 bb 30 16 83 3c fa bf 52 bc
       -0.015981307 -0.0030126856 0.01600179 -0.012863154
000070 75 f0 3e 3d 32 2f eb 3c 89 56 99 39 f3 67 ae 3c
       0.046616036 0.028709028 0.00029246908 0.021289801
000080 72 87 27 3d 46 3a 5e 3d 44 28 a8 39 24 f4 54 bd
       0.040900655 0.054254793 0.00032073457 -0.051990643
000090 9b 10 88 3c c7 fb 51 bd 99 74 84 bc 79 f2 e3 3c
       0.01660948 -0.051265504 -0.01616888 0.02782558
0000a0 f6 dd 51 3c ef 43 68 3d a4 a2 6e 3c d7 35 9b bb
       0.012809267 0.05670541 0.014565144 -0.004736643
0000b0 5c 06 bf 3c 16 0f fb 3b fe e1 93 3c 90 25 2a bd
       0.023318462 0.0076617105 0.018052097 -0.04153973
0000c0 10 04 85 bc 60 6c 3c 3b ff 61 0f 3a cd a7 31 3d
       -0.016237289 0.002875112 0.00054696196 0.043372918
0000d0 05 46 8d bc b1 65 0a 3c d6 68 c0 3c ac 52 88 bc
       -0.017245302 0.008447097 0.02348749 -0.016640984
0000e0 27 45 98 3c 1c 94 93 bc 33 8a 36 3c 48 ff 36 bd
       0.018587662 -0.01801496 0.011141348 -0.04467705
0000f0 27 8e 37 3b 3d 6b b2 3b 11 c4 7a bc 8c 9c bc 3c
       0.0028008313 0.0054449127 -0.015305535 0.023023866
000100 65 79 5c bd cd bc 01 3d 2e 9c c6 3c f1 09 c8 bc
       -0.05382671 0.031674195 0.024244394 -0.024418803
000110 37 9b 48 3d f0 9a 42 3c 72 99 e6 3c 00 76 d6 bc
       0.04897615 0.01187776 0.02814934 -0.026179314
000120 aa 21 5f bc 1f 75 4d 3d 93 d9 9b bc a3 3d 3d bd
       -0.013618866 0.050160524 -0.019024646 -0.04620136
000130 ef 53 70 3c e9 de 14 bc 51 d8 17 3d c1 d5 2f 3d
       0.014668449 -0.009086349 0.03707153 0.04292846
000140 95 e9 58 bd 02 d0 56 3c 2d 89 6c 3d 71 4c e8 bc
       -0.052957136 0.013111116 0.05774801 -0.028356763
000150 62 81 ae 3b e7 f9 e2 3c 7d 70 c7 3b 5d c9 00 bd
       0.005325482 0.027707053 0.0060864077 -0.031442035
000160 00 35 41 bd 61 c8 b9 bc 60 2b 99 bc cd 46 cd bc
       -0.047169685 -0.022678556 -0.01869744 -0.025058175
000170 23 a6 3d 3c dc 54 28 bd 0b a1 1b 3d b0 0b 47 3d
       0.011575255 -0.041096553 0.03799538 0.04859513
000180 b0 47 d9 bc fc 56 4d bd c0 9d 24 3d 43 d9 a0 3c
       -0.026523441 -0.050131783 0.040189505 0.019634848
000190 c5 42 2d 3d 7e f9 3b 3d 77 b8 5d bd f8 b5 b2 bc
       0.042300005 0.04589223 -0.054130998 -0.021815285
0001a0 4e 70 0b bd 30 09 62 3d d4 a2 aa bc 51 e7 1e bd
       -0.03404265 0.055184543 -0.020829596 -0.03879482
0001b0 97 69 4d bd 70 78 f0 bc df 85 3e 3d 38 a2 52 bb
       -0.050149526 -0.029354304 0.04651439 -0.0032140147
0001c0 d0 28 d5 3c 89 87 f9 3c 89 f8 03 bd 91 d0 c6 3c
       0.026020437 0.030460136 -0.032219443 0.024269374
0001d0 f4 71 32 3d b5 6b b7 bb a6 e8 3c 3c 74 72 aa 3c
       0.043565705 -0.0055975565 0.011530077 0.020806529
0001e0 5a 3c c4 bc 25 d8 60 bd 64 45 67 bd e6 4f 12 bd
       -0.02395456 -0.05489363 -0.05646266 -0.03572073
0001f0 43 52 0e 3d f4 fd 28 bb bb 21 4d 3d 0a c6 3d 3d
       0.03474642 -0.0025786133 0.050080996 0.046331443

encoder.1.running_var f4 [128]
000000 75 6e c3 3e 6c 0d 33 3f 3c 28 22 3f ce 52 88 3f
       0.3817021 0.69942355 0.6334264 1.065027
000010 bb 75 97 3f c6 29 0a 3f dd c5 78 3f af fa 08 3f
       1.1832803 0.5396999 0.97176915 0.5350751
000020 55 87 4e 3f 33 d5 1f 3f 29 bb aa 3e ba e2 34 3e
       0.8067525 0.6243469 0.33345917 0.17664614
000030 83 ed b8 3e ae 4e 08 3f 3c 01 f8 3e c3 0a 28 3f
       0.36118707 0.53245056 0.48438442 0.6564142
000040 dc 19 46 3f a9 82 92 3f 21 57 57 3f 6b 65 06 3f
       0.7738321 1.1446124 0.84117323 0.524985
000050 1f f0 80 3f 70 77 6b 3f 65 63 34 3f c1 35 1b 3f
       1.0073279 0.9197912 0.70464164 0.60628897
000060 93 2d 68 3f 83 20 17 3f 00 2c 5b 3e c5 76 29 3f
       0.9069454 0.59033984 0.21403503 0.6619685
000070 08 50 a6 3f bb cb 19 3f 00 c6 e9 3e e4 f4 fc 3e
       1.2993174 0.60076493 0.45658875 0.49405587
000080 24 b5 09 3f 81 7b 5f 3f e1 30 00 3f d5 72 70 3f
       0.53792024 0.87297827 0.50074583 0.9392522
000090 15 bd 04 3f 7c 9f 83 3f 05 74 1e 3f c8 7a 42 3f
       0.51851016 1.0283046 0.6189578 0.759686
0000a0 03 1d f1 3e 81 3c 09 3f f7 ce 20 3f f9 0e 6a 3f
       0.47092447 0.53607947 0.62815803 0.91429096
0000b0 3f 83 2f 3f 51 60 97 3f a3 d5 3e 3f e3 c2 47 3f
       0.6855964 1.1826268 0.74544734 0.7803175
0000c0 9d 4d 3a 3f db a7 89 3f cc 33 67 3f 59 e4 ba 3e
       0.7277468 1.075435 0.9031341 0.3650234
0000d0 aa c4 97 3f c5 84 06 3f 25 e1 b5 3e 11 d9 67 3f
       1.1856892 0.5254634 0.35523334 0.9056559
0000e0 ad 22 0f 3f 48 e8 de 3e 3d 0d 08 3f bc 91 64 3f
       0.55912286 0.43536592 0.531452 0.89284873
0000f0 ee 81 05 3f 16 dc ed 3e 8e 2f 8b 3f fa cb 03 3f
       0.5215138 0.46456975 1.0873888 0.5148312
000100 b4 0d 46 3f a3 eb 6d 3f f5 86 f9 3e 29 02 1d 3f
       0.7736466 0.9293768 0.48735777 0.6133142
000110 75 e2 33 3f a5 75 e2 3e e4 45 0e 3f 4c 20 22 3f
       0.7026742 0.4423038 0.55575395 0.6333053
000120 1d b1 ae 3e c8 d3 7b 3f 0c 9a 43 3f 7a 5c 57 3f
       0.34119502 0.9837003 0.7640693 0.84125483
000130 0b cc 92 3f 44 66 34 3f eb 22 d4 3f 5f 5d 4e 3f
       1.1468519 0.70468545 1.6573156 0.80611223
000140 6a 86 d4 3e 37 cf df 3e 71 03 d5 3e f8 08 a4 3e
       0.415088 0.4371278 0.41604188 0.32038093
000150 7c 73 c0 3e 1c 27 b3 3e eb 0d ec 3e fd 28 04 3f
       0.37588108 0.34990776 0.4610437 0.51625043
000160 b3 72 3e 3f 99 98 f0 3e 37 93 e7 3e 30 bf 98 3f
       0.7439377 0.46991423 0.45229504 1.1933346
000170 b9 db 12 3f 35 c4 91 3f a3 12 b0 3e 86 0c be 3e
       0.5736652 1.1388003 0.3438922 0.3711893
000180 f4 be b7 3f 36 99 87 3f 40 0a a4 3f bf 95 72 3f
       1.4355149 1.0593631 1.2815628 0.94759744
000190 d7 f3 25 3f 51 08 23 3f ec 24 1b 3f 3a cd 57 3f
       0.64825195 0.63684565 0.60603213 0.84297526
0001a0 11 80 84 3f b6 55 18 3f 1c 7b 75 3f e3 4a 2f 3f
       1.0351583 0.59505785 0.95890975 0.68473643
0001b0 aa c7 2d 3f d9 1f 28 3f 76 8d d6 3e 20 65 f3 3e
       0.6788279 0.65673596 0.419048 0.4753809
0001c0 5c 40 72 3f 7e 57 6a 3f c0 fb b7 3f 30 ba 78 3f
       0.94629455 0.9153975 1.4373703 0.971591
0001d0 06 6d 30 3f 61 82 12 3f 1a 1d e0 3f e2 8b 82 3f
       0.68916357 0.5723019 1.7508881 1.0198939
0001e0 79 18 f0 3e 5c b9 43 3f 45 e5 f5 3e 9a 68 a1 3f
       0.4689367 0.7645471 0.4802648 1.2610047
0001f0 bc ec 4b 3f 16 85 40 3f 6d 2b c7 3f bc 2d 03 3f
       0.79658103 0.75203073 1.5560127 0.5124166

encoder.3.weight f4 [128, 128, 5]
000000 37 15 e8 bc 68 22 c8 3a bb d6 19 bc a8 7a 18 3a
       -0.028330429 0.0015269043 -0.009389575 0.0005816617
000010 5a 1f b0 3c e8 a8 35 3c bb 8f f0 bc 9b f1 3b bc
       0.021499325 0.011087634 -0.029365411 -0.011471177
000020 19 17 8b bd a6 8c a6 bd 0f 6c c6 3c 2f 58 45 bc
       -0.06791515 -0.08132295 0.024221448 -0.01204495
000030 db e9 4f bd 4a 5e 18 bd fd e9 40 bd 6d 07 d4 bc
       -0.05076013 -0.037199296 -0.04709815 -0.025882447
000040 0b eb 9b bb 68 a6 2a bc 2b f7 cc bc 92 0d 2e bc
       -0.004758244 -0.010415651 -0.025020203 -0.010623353
000050 5d 59 07 bc 5c 73 8d 3b f2 8b 26 3c 56 c1 27 bd
       -0.008261052 0.0043167304 0.0101652015 -0.040955864
000060 8d b8 cf 3c 11 33 aa bc d5 61 80 3b 43 d5 03 3d
       0.025356555 -0.020776303 0.0039179125 0.032185804
000070 2a 71 06 bb de 9d 21 bc 06 b0 7b 3b 64 b6 45 bc
       -0.0020514228 -0.009864299 0.0038404479 -0.012067411
000080 8e 6e d1 3c 24 b8 cd bc b3 43 f7 bc 30 15 0b bc
       0.025565412 -0.02511222 -0.030183649 -0.008488938
000090 18 90 27 bd 5b 41 27 bd ea 9e d3 bb cb e5 e0 3c
       -0.040908903 -0.040833812 -0.006458153 0.027453324
0000a0 20 d4 3e 3c 10 cd 08 3d a8 49 d1 ba 17 8c 9f bc
       0.011647254 0.033398688 -0.0015967386 -0.01947598
0000b0 43 ae f4 bb df 67 6a 3c 9f 68 91 bc fc 14 da 3b
       -0.0074670627 0.014306991 -0.017750083 0.0066553336
0000c0 ea db 64 ba 4a 0b 20 3c c9 b0 f4 3a 14 90 d2 bc
       -0.00087302795 0.0097683165 0.0018668409 -0.025703467
0000d0 6b fc 82 3a 8d da ca bb 22 fc 20 3c df 75 9e bc
       0.0009993439 -0.006190604 0.009825738 -0.019343315
0000e0 55 b7 90 3c 78 44 02 3d bf e7 c1 3c 2d e2 37 3d
       0.017665545 0.03180358 0.023670075 0.044893432
0000f0 b4 4f 2e bd 6d fa 31 3c 16 d4 8f 3b 33 ce 7b 3d
       -0.04255648 0.010862929 0.0043892963 0.061475944
000100 ae 07 0d bb d0 3d e7 3b 8c ec 42 3d c8 c2 c5 bc
       -0.002151947 0.007056929 0.04758887 -0.02414073
000110 53 d9 01 3c da ce 06 3d af 32 ad 3c 19 74 19 3d
       0.007925349 0.032912113 0.021142332 0.037464235
000120 fa bb 80 3c 80 96 25 3d e4 71 0f ba 96 87 00 bd
       0.015714634 0.04042673 -0.0005471988 -0.031379305
000130 c5 a6 00 3a 46 c0 26 bc 06 06 d4 bc af 2d 9c 3c
       0.0004907663 -0.0101776775 -0.025881778 0.019064752
000140 ad 68 77 3b 5a de bf ba 64 c9 1e bb 2c bd a5 bc
       0.00377516 -0.001463841 -0.0024228925 -0.020231806
000150 a1 3e dd 3b 5b fe a7 bc 0e df 27 3c 5f 67 ad bc
       0.0067518507 -0.020507028 0.0102460515 -0.021167455
000160 82 38 93 bb b6 e9 bd bc 8e 13 71 bc 99 8b 78 3c
       -0.0044928202 -0.023182731 -0.014714135 0.015170001
000170 59 fb 6b bd d9 d9 43 bd c5 bb 22 3b bc 9e ea 3b
       -0.05761275 -0.047815178 0.0024831158 0.007160036
000180 9a 0d 09 3d dd 51 b1 bc 2b a4 09 3d cc 64 8f bb
       0.033460237 -0.02164548 0.03360383 -0.0043760296
000190 9b b7 99 3c b5 cd c5 3c 30 74 ed bb 7d 69 39 bd
       0.018764308 0.02414594 -0.0072465166 -0.045266617
0001a0 8c fa 21 bc 6c fc fe 3c ab f4 88 3c 9c 43 b1 bc
       -0.009886395 0.031126224 0.01671823 -0.021638684
0001b0 d7 40 81 3c 6a cd b2 bc 0d 70 af 3b f2 ef c0 bc
       0.015777988 -0.021826465 0.0053539337 -0.023551915
0001c0 a7 7d a4 bc 7e b2 fe bc cd 4c e7 3c aa aa a0 b8
       -0.020079447 -0.031090971 0.028234864 -7.661183e-05
0001d0 f4 59 ca bc 14 6b 85 b8 d3 0e 7f bc 36 56 be 3c
       -0.024701096 -6.361879e-05 -0.015567499 0.023234468
0001e0 5e ab 47 bc b8 a3 38 3c e3 22 a2 bc cb d8 72 bc
       -0.012186853 0.011269502 -0.019792026 -0.014822195
0001f0 c6 62 43 bd ba fd c1 3c 5a 52 1f 3d a8 8c e2 bc
       -0.04770162 0.023680557 0.038896896 -0.02765496
000200 20 26 ec 3c e9 3a e5 ba c1 2f bd bc 74 f4 ec 3b
       0.028826773 -0.001748887 -0.02309406 0.0072312895
000210 93 18 d2 3c 4d a2 07 3d d0 16 69 3c 78 cd 7e 3c
       0.025646484 0.033113766 0.01422663 0.015551917
000220 98 95 16 3b a0 c9 22 bd 7b c4 24 bc 08 13 9d bc
       0.0022977348 -0.039743066 -0.01005661 -0.019174114
000230 d7 19 2a 3b 10 a4 bf 3b 8c 73 02 bc 8a 8e 1c 3d
       0.0025955343 0.005848415 -0.007962119 0.038221873
000240 0c b7 bd bc 7d 75 03 bd 6f 15 a6 3c 44 1f 09 ba
       -0.023158573 -0.032094467 0.020273892 -0.0005230794
000250 f6 ac 3b 3d 8c ff 29 3c 14 a8 83 bc 3d f4 a2 bc
       0.045819245 0.0103758685 -0.016071357 -0.019891853
000260 2c e9 95 3b ec 0d cd bc 98 0c 34 3d 41 54 ae 3c
       0.0045749154 -0.025031053 0.043957323 0.02128041
000270 70 7a 73 3c cc 7f e3 3c c5 a4 26 bc 2f 5a 17 3c
       0.014860734 0.0277709 -0.01017112 0.00923781
000280 7e 24 a6 bc 4a fd b6 bc 6f 4c 3f 3d c6 5a 17 bc
       -0.020281073 -0.022337575 0.046703752 -0.009237951
000290 5d 6d 2e bc 76 d4 08 3c 6d c3 b6 bc 32 28 b4 bc
       -0.010646191 0.008351436 -0.022309983 -0.021991823
0002a0 28 4a 35 bd 61 7a b4 3c e6 25 9c bb 1f 90 04 3c
       -0.044260174 0.022031011 -0.00476526 0.008091002
0002b0 a7 f9 ae 3b 91 23 f0 3c ed c0 15 3c 11 a1 30 bc
       0.0053398195 0.029313834 0.009140235 -0.010780589
0002c0 fe 1b 48 3b 2e 0f d0 bc 6c 74 06 bc 77 c1 03 3b
       0.0030534263 -0.025397863 -0.008206468 0.0020104328
0002d0 9c 44 04 3d 5b 10 10 b9 8e 22 9c 3c 1f fb 79 bc
       0.032291993 -0.00013739003 0.019059446 -0.015257626
0002e0 b7 00 3e bd c6 6e 39 3c d0 5c 33 ba 8b 96 41 bc
       -0.0463874 0.011317914 -0.0006842138 -0.011815677
0002f0 07 6f 16 3d 14 4b 87 bc 84 ae d1 3c c8 91 62 bc
       0.036726978 -0.016515292 0.02559591 -0.013828702
000300 bf a8 b3 3b 7f 05 74 bc c1 2f e9 3c 30 bc 15 bd
       0.0054827626 -0.0148938885 0.028465154 -0.036556423
000310 1d 36 22 3c bf 7c e8 3c a5 e5 05 3c 76 27 fe bc
       0.009900597 0.028379796 0.008172427 -0.031024676
000320 26 37 0d bc d4 09 e4 3b 1c d7 d9 bb 59 ff 8a bc
       -0.008619105 0.0069591794 -0.0066479575 -0.016967462
000330 35 ab b9 bc 67 d1 6e 39 47 5f 9b bb f2 bf d6 3c
       -0.022664646 0.00022775457 -0.0047415826 0.026214574
000340 87 a2 68 bc fd cb df 3c 6a 84 c4 3c 86 32 c6 bc
       -0.014198906 0.027318949 0.023988921 -0.024194013
000350 24 30 d8 bb d4 7d 68 3c ea 90 35 bb 17 0c 5f bc
       -0.0065975357 0.014190156 -0.0027704784 -0.013613722
000360 97 7d 7c ba 8a 22 ea 3b 3b cf 00 bc 14 6f aa ba
       -0.00096317515 0.0071452307 -0.007861908 -0.0013003075
000370 7a 35 c1 bb 9f 41 77 bb 4e c7 33 3d f6 26 04 3c
       -0.0058962675 -0.0037728322 0.043891244 0.00806593
000380 59 95 f5 bc 8a 7d e7 3c 5f f3 a8 3b eb ca b6 3b
       -0.029978441 0.028258104 0.005155965 0.005578389
000390 a9 2e 86 bc 92 1a 0c 3d b9 0d 99 bb b4 8f b9 bb
       -0.016379671 0.034205027 -0.0046708253 -0.0056628827
0003a0 c6 b5 b3 bc 22 47 cb bc cc cb cd 3c 0d f4 15 bd
       -0.021937262 -0.024814192 0.025121592 -0.036609698
0003b0 f0 64 33 bb 47 aa 0a 3c 4d f6 bb bc 75 d1 8c 3c
       -0.0027373396 0.008463449 -0.022944594 0.01718972
0003c0 e2 5c 3f bb a7 66 03 3d 68 93 80 bc 4b f3 d9 bc
       -0.002919965 0.03208032 -0.015695289 -0.026605269
0003d0 38 f4 62 bc 8a e1 b8 bc 29 f2 bc bb 73 d4 82 bc
       -0.013852172 -0.022568483 -0.0057661724 -0.015970444
0003e0 8a 26 03 3d 1d 47 26 3d 23 93 e9 3c 6a 56 ca bc
       0.032019176 0.040595163 0.028512543 -0.024699409
0003f0 d7 b4 bf 3a 3c f7 d0 3c 15 7c 98 bc 77 ed 28 3c
       0.0014626038 0.025508516 -0.018613854 0.010310522

encoder.3.bias f4 [128]
000000 de 44 51 3b 5b bf b6 3c 1c 55 cb bc 3c 73 f1 bc
       0.0031931917 0.022308042 -0.024820857 -0.029473893
000010 23 2a 93 bc 99 ca 2c bb c6 cb 00 3d 23 8c 9f 3c
       -0.017964428 -0.0026365875 0.031444333 0.019476002
000020 a9 22 16 bc 5e b7 6f bc 6c 85 a5 bc cf 9d 01 bd
       -0.009163537 -0.0146311205 -0.020205222 -0.03164464
000030 e4 65 00 3d 89 00 a5 3c a8 c1 87 bc 2c 6c 15 3b
       0.03134717 0.020141857 -0.016571835 0.0022800071
000040 f3 ad 71 bb 0f 0a ab 3c ac 84 f4 3c 4a 54 72 bc
       -0.0036877363 0.02087882 0.02984842 -0.014790604
000050 41 b3 0a 3d c9 ea f9 bb 9c 8d cd 3b 1d 0d 19 3d
       0.033862356 -0.0076268655 0.0062729847 0.03736602
000060 38 22 7e bb ea 57 eb b8 d8 43 ae bc ac 81 93 3c
       -0.003877772 -0.000112220485 -0.021272585 0.018006168
000070 5d a6 9e bc f1 de 0e bd a0 32 26 bb b3 f0 54 bc
       -0.019366438 -0.034880582 -0.0025359765 -0.01299684
000080 19 8e 05 3d 42 16 7a 3c 08 fc 16 bc c1 14 5e 3c
       0.032606218 0.015264096 -0.009215362 0.013554753
000090 b0 54 39 bc ec e5 02 bd 54 a0 cf ba 2f 45 21 bd
       -0.011311695 -0.03195755 -0.0015840628 -0.03937262
0000a0 64 04 94 bc ad 1f 4c 3c 2a 55 1b 3d 53 38 b5 3c
       -0.0180685 0.012458724 0.037923016 0.022121584
0000b0 6f c7 13 3b c1 f6 aa 3c 72 87 83 3c d2 04 93 bc
       0.0022549292 0.020869615 0.016055796 -0.017946634
0000c0 61 74 7c 3b 86 f7 24 bb c5 1e 01 bc 77 36 dd 3c
       0.0038521516 -0.002517195 -0.007880871 0.02700351
0000d0 a4 02 8f bb 86 d3 7e bc a0 87 4e 3c 4a bd 33 bc
       -0.0043643285 -0.015553361 0.012605578 -0.010970423
0000e0 94 00 1c bc e0 38 5a 3c c6 ee a9 ba 31 f1 f8 3c
       -0.009521622 0.013319224 -0.0012964837 0.030388447
0000f0 d3 27 14 3d 34 c4 a9 3c b0 4c b0 3c 15 0d 08 bc
       0.03617079 0.02072344 0.021520942 -0.0083039
000100 23 fa 9c bc 8c 96 93 3b 9a 5c 93 3b e0 22 59 3c
       -0.019162243 0.0045040306 0.004497123 0.013252944
000110 2c 2c ad bc 78 ea c4 3a bb 2e f0 bc 6d 26 02 bd
       -0.021139227 0.001502349 -0.029319158 -0.031774927
000120 ff 66 85 3c b9 6a b1 3b 95 3b fe 3b b3 f1 a3 bb
       0.016284464 0.0054143337 0.0077585676 -0.005003178
000130 fa 14 9b ba 97 0f 61 3c d7 f8 83 bc 37 3f a9 3c
       -0.0011831813 0.013736627 -0.016109867 0.020660026
000140 b0 52 82 bc 6e b6 42 3c b6 97 d0 3c 99 0d 41 bc
       -0.01590857 0.011884315 0.025462966 -0.011783027
000150 f4 15 30 bc 2d 6a 89 3c 4c 2a ee bb 35 b8 66 bc
       -0.0107474215 0.016774261 -0.007268226 -0.014082004
000160 ec 45 32 3b ab 91 6a bb 08 76 0c 3c 34 c9 ef 3c
       0.0027202321 -0.0035792391 0.008573063 0.029270746
000170 91 32 0f 3d 7e 39 07 bd 81 f6 9b 3c d6 12 92 3c
       0.034960333 -0.033013813 0.01903844 0.017831247
000180 35 10 34 bc 9a dd 1b bd 0a 78 03 bd 59 75 84 ba
       -0.010990192 -0.038053133 -0.0320969 -0.0010105773
000190 50 63 09 3d db 6f 6e 3c b6 fb a7 3b ee 31 1f 3c
       0.033541977 0.014553036 0.005126442 0.009716494
0001a0 25 ac 35 3b 77 2a 9d bb d0 33 16 3d 0f dd 17 bd
       0.0027721014 -0.004796322 0.036670506 -0.037076052
0001b0 14 6e 2b ba a1 e2 fc 3c da ad 3d bc 46 22 5b bc
       -0.0006539535 0.030869784 -0.011577094 -0.013374871
0001c0 18 b7 9b bc 5d 74 71 3b 56 78 d7 bc 2f 0d 1c bd
       -0.019008204 0.003684304 -0.026302498 -0.03809851
0001d0 61 bb 07 3d 5c 1e 92 3c 7d 36 01 3b 77 f0 16 bc
       0.033137683 0.017836742 0.0019716315 -0.009212605
0001e0 13 c9 ce 3a a8 a0 2e 3c bb ec 9a 3c ec 26 9a ba
       0.0015776478 0.010658421 0.01891171 -0.0011760867
0001f0 ce 3e 9f 3c 89 0d ea 3c 01 ec c6 bc 38 93 11 3d
       0.019439127 0.028570907 -0.024282457 0.03554079

encoder.4.weight f4 [128]
000000 12 c2 84 3f bc 9e 82 3f 1c c1 80 3f 0c 65 7c 3f
       1.0371726 1.0204692 1.0058932 0.98591685
000010 33 63 81 3f bf 44 82 3f d8 1c 81 3f 92 8b 7c 3f
       1.0108398 1.017723 1.0086927 0.9865047
000020 2f d3 78 3f 2b d9 84 3f d9 4d 83 3f 82 00 7f 3f
       0.9719724 1.0378774 1.0258132 0.9961015
000030 3e 25 7b 3f c4 4e 82 3f c1 b2 79 3f 98 a9 6c 3f
       0.981037 1.0180287 0.9753838 0.9244628
000040 67 80 82 3f 65 7a 7e 3f fd 0e 82 3f f3 84 86 3f
       1.0195435 0.9940551 1.0160824 1.0509323
000050 97 cc 74 3f f0 a3 79 3f cb e4 7c 3f 4f d7 81 3f
       0.9562468 0.97515774 0.9878661 1.0143832
000060 c9 1a 82 3f 33 32 76 3f 4b 2c 79 3f e0 e0 81 3f
       1.0164424 0.9617035 0.9733321 1.0146751
000070 91 a0 81 3f 6f ad 80 3f 10 aa 85 3f 4a 76 83 3f
       1.0127126 1.0052928 1.0442524 1.0270474
000080 76 4b 7d 3f 6d 6d 80 3f a5 6a 7a 3f c9 f2 7b 3f
       0.9894327 1.0033394 0.97818977 0.98417336
000090 73 02 82 3f d1 16 81 3f 46 a5 7f 3f ce 16 83 3f
       1.0156997 1.0085088 0.9986156 1.0241334
0000a0 ad 17 80 3f f4 1d 7a 3f 33 1a 84 3f 81 ae 80 3f
       1.0007225 0.97701955 1.0320495 1.0053254
0000b0 10 41 81 3f 8e 5e 72 3f 98 04 7b 3f f3 a5 82 3f
       1.009798 0.9467553 0.98053885 1.0206894
0000c0 a3 dc 7c 3f fb 02 76 3f dd ec 81 3f ae be 79 3f
       0.98774165 0.960983 1.015041 0.9755658
0000d0 00 7c 81 3f ea ca 75 3f ee f4 80 3f ac be 81 3f
       1.0115967 0.9601275 1.0074747 1.0136313
0000e0 58 96 7d 3f 7d c2 7f 3f b8 0b 85 3f 77 68 7b 3f
       0.9905753 0.9990614 1.0394201 0.98206276
0000f0 27 5e 7f 3f 6a e3 85 3f 7d bd 7e 3f a1 71 76 3f
       0.9975304 1.0460026 0.99507886 0.96267134
000100 46 77 75 3f 47 13 81 3f d4 90 86 3f b8 65 80 3f
       0.9588512 1.0084008 1.0512948 1.0031042
000110 cd 1a 84 3f 49 c0 85 3f 9a c0 79 3f 59 eb 79 3f
       1.0320679 1.0449306 0.9755951 0.9762474
000120 20 e5 7c 3f ce 93 75 3f 55 52 73 3f 08 ec 80 3f
       0.98787117 0.9592866 0.95047504 1.0072031
000130 3a 35 7e 3f d0 65 80 3f 08 a3 84 3f e2 a7 7b 3f
       0.9929997 1.0031071 1.0362253 0.98303044
000140 76 b1 87 3f dd 9f 7a 3f 8a 04 8a 3f ff ce 80 3f
       1.0601032 0.9790018 1.0782635 1.006317
000150 74 50 81 3f e4 06 83 3f c8 4d 82 3f 96 84 7a 3f
       1.0102677 1.0236478 1.0179987 0.9785856
000160 79 60 82 3f 46 ce 76 3f eb d2 86 3f f1 2a 7c 3f
       1.0185691 0.964085 1.0533117 0.98503023
000170 c2 cb 7f 3f 45 55 84 3f 84 76 75 3f 04 2a 80 3f
       0.99920285 1.0338522 0.95883965 1.0012822
000180 ca 44 77 3f 82 c5 80 3f 22 a3 7f 3f 6d cc 78 3f
       0.9658934 1.0060275 0.99858296 0.9718693
000190 11 15 7f 3f 3c e5 80 3f 5d 24 7e 3f 46 1c 80 3f
       0.9964152 1.0069957 0.99274236 1.0008628
0001a0 59 43 81 3f e1 0e 7e 3f ed a5 82 3f 82 63 7a 3f
       1.0098678 0.99241453 1.0206887 0.97808087
0001b0 55 cf 79 3f 73 48 81 3f fc 41 80 3f ae a1 76 3f
       0.9758199 1.0100235 1.0020137 0.96340454
0001c0 52 bd 78 3f fd 4e 7a 3f ee ff 85 3f 96 e6 78 3f
       0.9716388 0.97776777 1.0468729 0.97226846
0001d0 69 29 7f 3f 08 54 79 3f ef da 7a 3f 55 d6 7f 3f
       0.9967256 0.97393847 0.97990316 0.9993642
0001e0 92 7a 84 3f 72 7d 73 3f 97 d0 81 3f 0e 41 7f 3f
       1.0349905 0.9511329 1.0141782 0.9970864
0001f0 37 88 76 3f 32 ee 84 3f 51 41 82 3f 3d c5 74 3f
       0.963016 1.0385191 1.0176183 0.9561346

encoder.4.bias f4 [128]
000000 87 f3 f2 3c bb d7 d8 3c 36 ee 33 3d 5f ba 94 39
       0.029657139 0.026470056 0.043928348 0.00028367617
000010 1a b8 95 bc 66 ac fd 3c d8 d2 24 3d 59 f2 16 bb
       -0.018276263 0.030965995 0.04024014 -0.0023032634
000020 95 b7 91 3c 29 b2 81 bd 91 fc 5b bd d0 7d 2b 3d
       0.017787734 -0.063328095 -0.053707663 0.04186803
000030 96 93 c7 3c 00 39 ad 3c 77 38 01 3d ac 80 dd bb
       0.024362367 0.021145344 0.03154799 -0.0067597236
000040 9c fb 23 bd 02 2d 35 bc 37 d2 ed bc e6 69 13 bd
       -0.040034875 -0.011058094 -0.029030902 -0.035989664
000050 8e 2d e5 3c a4 ec 6c bd 9a 38 83 3c 3f fe a2 3d
       0.027975824 -0.057842866 0.0160182 0.0795865
000060 4b 7e 55 bd 42 aa 95 bb 13 0b ee 3c 03 34 bc 3b
       -0.052122395 -0.0045674155 0.029058015 0.005743505
000070 74 07 af ba 7a b5 93 3b e9 aa 56 3a fe 8b f0 3c
       -0.0013353662 0.0045077177 0.000818892 0.029363628
000080 c1 c0 d1 3c fb a0 69 3c 7d 0a 58 3c 8c 3f 7c 3b
       0.025604608 0.014259572 0.013186094 0.0038490025
000090 ad 89 2e 3d aa 10 af 3c 99 9a 34 3d 1e e3 6a 3d
       0.042611767 0.02137025 0.04409275 0.057345502
0000a0 14 c1 48 bc 58 fa 57 3d 77 ce 3d 3d aa f4 b7 bb
       -0.012253065 0.05272898 0.04633948 -0.005613883
0000b0 95 37 f7 3c ef 4b 97 bc ee 8e aa bc ef 3b 1a 3b
       0.03017787 -0.018468825 -0.020820107 0.0023534258
0000c0 a0 3c 88 bc 4c 53 7b 3c f7 88 4c 3d 56 7d 21 3d
       -0.01663047 0.015339684 0.049935307 0.03942617
0000d0 f6 4a d2 bc e7 10 59 3c c0 76 13 3d 6e 48 7e 3d
       -0.02567051 0.013248659 0.03600192 0.062080793
0000e0 66 dd 49 3c aa c8 15 3d 19 94 3c 3d dd cb 80 3c
       0.012320852 0.03656832 0.046039674 0.01572221
0000f0 a9 84 71 bd 09 00 00 3d 75 c4 03 3d ce 6b 9c 3c
       -0.058964405 0.031250034 0.032169778 0.019094374
000100 7e 52 af 3a ae ef 39 b9 34 df c8 bc d2 e2 20 3d
       0.0013376025 -0.00017732262 -0.024520494 0.039278813
000110 d5 48 72 3d e1 27 46 3c f8 e8 7c bb e9 27 4b 3b
       0.05915149 0.012094469 -0.0038591009 0.003099913
000120 c9 a3 4e 3d 69 9a 95 bc a0 eb d2 3c 77 da fb 3c
       0.050449166 -0.018262105 0.02574712 0.03074382
000130 c0 24 dd b9 4d a4 95 bc 54 ef 1f 3d e6 34 19 bc
       -0.00042179786 -0.018266821 0.0390466 -0.009350991
000140 7a 2d bf 3c 02 af fb 3c 91 ef e1 3c fb dc 35 3d
       0.023337115 0.030723099 0.027580054 0.044400197
000150 19 75 47 3d 6b 11 09 3d 15 b6 2f bc ab f2 a4 3c
       0.048695657 0.033463877 -0.010724564 0.020135244
000160 41 92 6c 3d af 57 c6 ba b2 e8 3a bd 75 c1 07 3d
       0.057756666 -0.0015132333 -0.04563207 0.03314348
000170 2d 9f 0a 3d 9e 95 50 3d 60 41 75 3b 5d c1 34 3d
       0.033843208 0.050923936 0.0037423 0.044129718
000180 a5 21 11 bb a0 80 bc 3c a6 d4 4e 3d 6b da 7a bc
       -0.0022145298 0.023010552 0.050495766 -0.015310864
000190 db 44 8e 3d 0e 2c 02 3c 97 f6 27 3c 5f ee 3d 3d
       0.06946727 0.007945074 0.010251663 0.046369907
0001a0 f8 d7 b6 3d 7d 8b cb 3c 2c 25 d4 3a 8f 6d 7c 3d
       0.089279115 0.024846787 0.0016185394 0.06162792
0001b0 3c 05 2e 3b 44 5f 95 3c e5 d3 b8 3c ff 6b ae bc
       0.0026553413 0.018233903 0.022561977 -0.02129173
0001c0 60 46 b4 bb 3c 8b fa 3c f7 7f d0 bd 84 64 e1 bc
       -0.0055015534 0.03058397 -0.10180657 -0.02751375
0001d0 6c 36 53 3d 19 76 3c bc 35 8c 33 3d d1 b3 74 3d
       0.051565573 -0.011502766 0.043834884 0.0597418
0001e0 7f 1b 62 bc 28 91 ba 3c 93 59 e4 3c 26 f1 84 3b
       -0.013800501 0.022774294 0.027874744 0.0040570674
0001f0 40 d3 7e ba 85 56 c7 bb 90 6b 12 3d cd 8e a4 bc
       -0.000972081 -0.006083312 0.03574711 -0.020087624

encoder.4.running_mean f4 [128]
000000 2f 49 98 be da 0c 97 be 37 41 d8 bd 7b 48 68 be
       -0.29743335 -0.29501992 -0.10559314 -0.22683899
000010 cf d8 1e be 94 01 b7 be 97 56 a0 bd 96 76 d6 be
       -0.15512393 -0.35743392 -0.07829016 -0.4188735
000020 06 b9 a0 be ef 85 87 be 87 bd 6c bd d1 ea 00 bf
       -0.31391162 -0.2646937 -0.057797935 -0.503583
000030 6d c5 d2 be f1 49 3d bf 6a c9 8b 3d 59 05 83 3e
       -0.4116625 -0.7394095 0.06825526 0.25590017
000040 6c ca 9e be 0b 42 53 3f 48 f4 8e be 85 09 18 bd
       -0.3101381 0.8252265 -0.27920747 -0.037118454
000050 02 49 56 be 7f d1 3c be 6d 4b 0e bf 67 2d d2 be
       -0.20926288 -0.18439291 -0.5558384 -0.41050264
000060 e2 c9 2c be 35 3d 67 be f3 d8 fa be cb c5 29 be
       -0.16873887 -0.22581942 -0.48993644 -0.16579358
000070 f5 84 3d be 2f 03 ba be da 77 3c be 07 2a ad be
       -0.1850775 -0.36330554 -0.18405095 -0.33821127
000080 99 8c f7 be 01 72 27 be 94 f5 64 bf 34 4a 90 be
       -0.48349455 -0.16352083 -0.8943722 -0.28181612
000090 f7 2b 58 be 1d 6a 93 be d4 8d 23 bf 25 90 9a be
       -0.21110521 -0.28791896 -0.6388829 -0.301881
0000a0 c3 98 81 bf 19 2a 79 be 65 33 9d bd 8c ff 54 be
       -1.0124744 -0.24332465 -0.07675818 -0.20800608
0000b0 ec 28 e8 be 2a 40 86 be 1c 8b e2 be 93 34 05 be
       -0.4534372 -0.26220828 -0.44246757 -0.13008337
0000c0 de 2c 1e 3d f5 cb c4 be 76 b8 60 bd 1c 6a 53 bb
       0.038617007 -0.38436857 -0.054863416 -0.003225929
0000d0 9c 69 40 be 2d da 25 be 01 a4 19 bf 55 9d 1b be
       -0.18790287 -0.16196509 -0.60015875 -0.15196736
0000e0 df 3f df be 33 3f 11 be 99 ff 93 bf 2f 6a d7 bd
       -0.43603417 -0.14184265 -1.1562377 -0.105183
0000f0 2c 42 e7 be 82 b4 34 be e8 45 7e be 4b f5 a7 bd
       -0.45167673 -0.17646983 -0.24831355 -0.08201083
000100 3d a4 23 bf d2 de 18 bf 98 b3 86 bd bd 3c cc be
       -0.6392248 -0.59714997 -0.065772235 -0.3989009
000110 e0 61 94 be f8 06 01 be b3 98 b2 be 28 e1 66 be
       -0.28980923 -0.12600315 -0.34882125 -0.22546828
000120 bb 5d e3 bd 77 33 39 be c4 9b 2b bd 8a 6b f2 be
       -0.11101862 -0.18086039 -0.041896597 -0.4734767
000130 28 af 36 be 5d 89 8d be f3 fe 59 be ca 60 1c bd
       -0.17840254 -0.27643862 -0.21288662 -0.038178243
000140 44 d6 22 be 75 64 53 bf c8 c0 46 bd 7a 8d 1b bf
       -0.15902048 -0.8257516 -0.048523694 -0.6076275
000150 b9 72 c2 be f3 c1 76 be 83 ae 8c be 25 86 e7 be
       -0.3797815 -0.24097423 -0.27476892 -0.45219532
000160 61 f4 0c bf a7 e9 4a bf 7e b0 0b be e4 bf bc be
       -0.5506039 -0.79262775 -0.13641545 -0.3686515
000170 e3 ed 54 be 11 60 fc be 3c 36 6a bd 0c bf 08 bf
       -0.20793872 -0.49292043 -0.05718063 -0.53416514
000180 3c 11 13 bf 15 73 18 3e 99 84 df bd 74 47 a9 bd
       -0.5744817 0.1488765 -0.10913963 -0.08265582
000190 10 78 5d bc d2 ed 65 be 65 70 22 bf c9 8e 0d be
       -0.013517395 -0.22454002 -0.6345275 -0.13824
0001a0 9b c5 82 be dd 87 72 be 81 d9 a1 be a5 6d 22 bb
       -0.25541386 -0.2368464 -0.31611255 -0.0024784592
0001b0 8f ec de be 55 24 ad bd db 05 02 bf bf 14 bb be
       -0.43539855 -0.084541954 -0.50790185 -0.36539266
0001c0 07 a6 00 bf 02 f3 01 bf 37 d3 3a be b9 8c 26 be
       -0.5025334 -0.50761425 -0.18244635 -0.16264619
0001d0 57 19 da bd 7a 69 63 be 80 0a f8 bd 4c d8 17 bf
       -0.106493644 -0.22208205 -0.12111378 -0.5931442
0001e0 ac 90 8c be 0c fd 09 be 5d fd d6 be 65 1f e9 be
       -0.27454126 -0.13475436 -0.41990176 -0.45531765
0001f0 76 c7 c6 be 0b 1c 7f be c2 62 82 be 7c 59 8c be
       -0.38824052 -0.24913041 -0.2546597 -0.2741202

encoder.4.running_var f4 [128]
000000 4e 1c a5 3e 0c ec 60 3e f8 50 23 3e cf b1 56 3e
       0.32248157 0.21965045 0.15948856 0.20966266
000010 ce d5 65 3e 32 9d 8e 3e 0c d2 57 3e 21 0c ac 3e
       0.22444841 0.27854306 0.2107622 0.33603004
000020 a0 ef e3 3e 3d e2 3e 3e 51 0e a6 3e dc f3 e6 3e
       0.44518757 0.1864099 0.32432798 0.45107925
000030 f8 b9 eb 3e c9 ba 4a 3f e8 93 64 3e 12 eb e1 3e
       0.4604032 0.7919126 0.22322047 0.44124657
000040 ce 4d 0e 3f 21 07 74 3f 32 8a 99 3e 2c dc 25 3e
       0.5558747 0.9532338 0.29988247 0.1619727
000050 7f c7 60 3e db 17 74 3e b7 3e e2 3e 5e 18 ae 3e
       0.21951102 0.23837225 0.44188473 0.34002966
000060 11 a7 5a 3e d8 70 9a 3f 85 cf b0 3e 45 b0 6e 3e
       0.21352793 1.2065687 0.34533325 0.23309429
000070 af 53 6c 3e 0d 46 04 3f c8 1a 55 3e 3b 74 cd 3e
       0.23078798 0.5166939 0.20810997 0.4012774
000080 c7 4e 12 3f f3 6f 99 3e 43 68 92 3f b2 4c 00 3f
       0.57151455 0.29968223 1.1438068 0.5011703
000090 5b 16 96 3e dc d6 52 3e 43 c0 4a 3f 6c f1 6c 3e
       0.2931393 0.20589775 0.7919962 0.2313897
0000a0 72 5d b1 3f 44 00 4f 3e 58 f9 ff 3d b6 c9 89 3e
       1.3856642 0.20214945 0.124987304 0.26911706
0000b0 68 88 e4 3e 1e 1e 48 3f af fb a4 3e 04 69 73 3e
       0.4463532 0.78170955 0.3222327 0.23770529
0000c0 bb 46 20 3f b7 3c 85 3e 43 27 78 3e d2 7d a3 3e
       0.62607926 0.26022884 0.24233727 0.3193193
0000d0 96 17 41 3e df 81 b4 3e 0b 97 22 3f e7 83 17 3e
       0.18856654 0.35255334 0.63511723 0.1479641
0000e0 fd f7 0b 3f 29 6f 5a 3e 91 62 88 3f 5b b4 4b 3e
       0.54675275 0.21331467 1.065508 0.19893019
0000f0 51 5c 05 3f dc 54 3a 3e 8a 55 6b 3e 1b 4e a6 3e
       0.5209399 0.18196434 0.2298185 0.32481465
000100 36 f4 9b 3f 43 17 0d 3f bc 34 cb 3d a2 77 d1 3e
       1.2183902 0.5511362 0.09922168 0.40911585
000110 ee ef 5d 3e 16 d5 6c 3e 66 c3 84 3f bd 1f 7e 3e
       0.21673557 0.23128161 1.0372131 0.24816795
000120 4b 0a 9a 3e 2a 0f fd 3e 61 d5 c2 3e b2 d9 d1 3e
       0.30085978 0.49425632 0.3805342 0.409864
000130 e7 33 b6 3e 46 c9 0e 3f 91 69 62 3e 22 91 c4 3e
       0.35586473 0.5577587 0.22110583 0.38391978
000140 fc eb 80 3e e8 55 6a 3f 96 0e 6b 3e 12 ae 0c 3f
       0.25180042 0.9153733 0.22954783 0.5495311
000150 32 9a 70 3e e4 53 6c 3e 8f 8b e1 3e 17 ec 86 3f
       0.23496321 0.23078877 0.44051787 1.0540799
000160 54 9f ff 3e 69 a6 7e 3f ce a8 9d 3e 97 b9 5e 3e
       0.49926245 0.9947267 0.3079285 0.21750484
000170 8e fc 58 3e 2f 59 01 3f 47 8d c1 3e 4d dc 16 3f
       0.21190092 0.5052671 0.378031 0.589299
000180 83 0e 9b 3f c5 bf c7 3e 6b 3d 8a 3e 08 b8 99 3e
       1.2113804 0.39013496 0.26999983 0.30023217
000190 3a ae 64 3e 8c 04 0b 3f 47 26 02 3f 77 0e 53 3e
       0.22332087 0.54303813 0.50839657 0.20610987
0001a0 fd 37 6b 3e 36 93 40 3e 9e 86 c2 3e cc 4d 7a 3e
       0.22970577 0.18806157 0.3799333 0.2444374
0001b0 0d e3 f7 3e 94 14 46 3e a6 29 05 3f 3f 4b 5f 3e
       0.48415413 0.19343787 0.52016675 0.21806048
0001c0 a4 e4 e4 3e 35 55 1b 3f ca 13 a9 3e 2e c3 47 3e
       0.4470569 0.6067689 0.3302291 0.19508049
0001d0 18 de 4f 3e c0 64 9e 3e 16 a1 79 3e c0 4d 25 3f
       0.20299566 0.3093624 0.24377856 0.6457176
0001e0 ca 28 ae 3e 9d 93 27 3e 26 2b d0 3e 7f 84 03 3f
       0.34015495 0.16364904 0.4065792 0.5137405
0001f0 b7 dc 62 3f 9b 4d 57 3e 5b a8 77 3e fb d7 56 3f
       0.88618034 0.21025698 0.24185316 0.8392331
