code/mae_model.pth (torch, 978183 bytes, 20 tensors)

encoder.0.weight f4 [128, 60, 5]
0.023576826 0.015559816 0.018977484 0.024091361 0.02457182 0.039799567 0.023942528 0.020874392
-0.036732927 -0.045434877 0.02392968 0.048449855 -0.053800613 0.016893515 -0.024235358 0.023154156
-0.007367583 -0.011745457 -0.01916924 0.0006034904 -0.007871827 -0.01949373 0.015223973 0.047474988
-0.05899221 -0.009548379 -0.025589144 0.006258784 0.02250791 0.034150496 -0.0044266274 -0.027408488
0.03149721 0.0020280182 0.014096026 -0.03495749 0.019070901 -0.0076055545 -0.030606799 0.018839518
-0.035104316 0.010128499 0.039265513 0.012748951 -0.050857294 -0.032999225 -0.059989803 0.027689904
0.0459161 -0.041336898 -0.018413896 0.008478632 -0.018869126 0.031349607 -0.033664588 0.021354612
-0.05960381 0.031201467 -0.03656197 0.039729096 0.056702424 -0.049608156 -0.029448088 0.041133367
0.016133904 -0.018456863 -0.06494354 0.011976647 -0.04748817 -0.02363735 0.0017191871 -0.022352805
0.014303476 -0.01969881 -0.04675512 0.04283501 -6.496563e-05 -0.007966322 0.020382678 -0.022162
0.03521311 -0.038881 -0.029358286 0.012855774 0.04982575 -0.04888888 0.038595166 -0.04654519
-0.0045331684 0.043287188 0.012381412 0.0086374 0.050551347 -0.06069067 -0.0073860274 0.041542955
0.03271112 0.06972095 0.019853322 0.03778215 -0.04172611 -0.042030897 0.06210761 -0.06443839
0.01494423 0.035208106 -0.02249248 -0.02827929 -0.025087135 0.0027199676 -0.012424057 -0.023240572
-0.0058727353 0.033073675 0.014006165 -0.01665498 0.002113271 -0.0019438091 0.023711795 -0.049526967
0.043882262 -0.030765934 0.049566515 -0.0053773555 0.029935304 -0.019425655 -0.03567281 0.052208457
0.006963402 0.016666885 0.0059926086 -0.035127636 0.008000756 0.010078477 -0.01499093 0.034600522
-0.009961726 -0.044114944 -0.056944534 -0.02298111 -0.020921005 0.015170443 -0.017293785 -0.018363558
-0.036283758 -0.011576821 0.00053905864 0.008231147 -0.0105691105 -0.051141843 -0.004308919 0.014745817
-0.0010885528 0.03619649 -0.034902994 -0.044757828 -0.03169961 -0.0012372299 -0.02583023 -0.01645295
-0.0122316 -0.010166135 0.019601831 0.04490548 0.028010126 0.012602825 -0.04765641 0.0047040414
0.019916138 -0.035472732 0.00965033 -0.015923496 -0.03223977 0.01599421 0.018636076 -0.032989334
0.013429715 -0.007334652 0.030393396 -0.05199001 0.0025916558 -0.0543366 0.01212715 0.03441985
0.028385505 0.021621194 0.027403833 -0.03011853 0.04294676 0.024894571 -0.021469368 -0.055101383
-0.011181805 -0.034362547 0.03495372 0.016289858 -0.07768104 -0.008070483 -0.042430814 -0.028183708
0.03764786 -0.05564128 0.046223134 -0.013570111 -0.04920798 -0.013407571 0.023862766 0.049438115
0.0421872 -0.016861835 -0.026476257 -0.03623214 0.03877749 -0.02272369 -0.061225988 -0.046573978
0.019958688 0.057944663 0.03320359 0.02259122 -0.018660406 -0.034885276 0.024013396 -0.023488142
0.01742456 0.0029882481 0.033419922 0.008316323 -0.0048671267 0.0014477944 0.027011408 0.0034106995
0.04417519 -0.044726703 0.025494277 -0.02857803 0.005662686 0.029127888 0.0017873128 -0.0033339094
0.022353105 -0.01929072 0.050138682 -0.054615106 -0.034788966 0.05857587 0.016089324 0.013369744
-0.0041996012 -0.0029317662 0.0075142034 -0.046980094 0.023558097 0.02995169 -0.03296376 -0.00034737066
00000000: 3024 c13c 99ee 7e3c ab76 9b3c 3f5b c53c
00000010: d74a c93c df04 233d 1f23 c43c c600 ab3c
00000020: 4475 16bd ec19 3abd 2d08 c43c 5b73 463d
00000030: 085e 5cbd 4564 8a3c 3b89 c6bc c9ad bd3c
00000040: c46b f1bb 0470 40bc cf08 9dbc 8e33 1e3a
00000050: d6f8 00bc 51b1 9fbc f96d 793c 2275 423d
00000060: d1a1 71bd ce70 1cbc 53a0 d1bc 7c16 cd3b
00000070: 8262 b83c 64e1 0b3d 3e0d 91bb c487 e0bc
00000080: 3803 013d 80e8 043b 05f3 663c 962f 0fbd
00000090: 943a 9c3c 0438 f9bb 1cbb fabc 5555 9a3c
000000a0: 8bc9 0fbd 01f2 253c e0d4 203d fae0 503c
000000b0: bd4f 50bd 322a 07bd deb7 75bd f0d5 e23c
000000c0: 8512 3c3d e150 29bd bdd8 96bc f6e9 0a3c
000000d0: 6d93 9abc 7268 003d e1e3 09bd deef ae3c
000000e0: 2023 74bd 389a ff3c 01c2 15bd faba 223d
000000f0: cd40 683d ec31 4bbd 1e3d f1bc 767b 283d
00000100: 402b 843c d932 97bc 1e01 85bd b339 443c
00000110: f582 42bd 1ea3 c1bc 5956 e13a 3b1d b7bc
00000120: 2059 6a3c 665f a1bc 4c82 3fbd c373 2f3d
00000130: 283e 88b8 2d85 02bc 93f9 a63c 158d b5bc
00000140: 9f3b 103d af41 1fbd ca80 f0bc 06a1 523c
00000150: 1616 4c3d b53f 48bd f715 1e3d 2ba6 3ebd
00000160: f98a 94bb e84d 313d 68db 4a3c e283 0d3c
00000170: ee0e 4f3d c896 78bd 7d06 f2bb f228 2a3d
00000180: 18fc 053d dcc9 8e3d 6fa3 a23c 75c1 1a3d
00000190: ffe8 2abd 9728 2cbd 8d64 7e3d 46f8 83bd
000001a0: a5d8 743c 6036 103d 2642 b8bc f8a9 e7bc
000001b0: 8983 cdbc 7c41 323b 468e 4bbc 0363 bebc
000001c0: 1370 c0bb 4378 073d 1d7a 653c 0670 88bc
000001d0: ce7e 0a3b 69c7 feba 3d3f c23c cadc 4abd
000001e0: e3bd 333d d708 fcbc 4206 4b3d 8734 b0bb
000001f0: e23a f53c 8d22 9fbc a71d 12bd 89d8 553d
00000200: 402d e43b fe88 883c a55d c43b ffe1 0fbd
00000210: 9a15 033c 3220 253c 859c 75bc 47b9 0d3d
00000220: 8236 23bc dfb1 34bd ac3e 69bd e142 bcbc
00000230: 8762 abbc 738d 783c b2ab 8dbc 2c6f 96bc
00000240: 479e 14bd b5ac 3dbc 9d4f 0d3a efdb 063c
00000250: 102a 2dbc 1c7a 51bd d531 8dbb 7098 713c
00000260: c5ad 8eba c542 143d 71f6 0ebd fc53 37bd
00000270: 73d7 01bd 8c2a a2ba eb99 d3bc 56c8 86bc
00000280: 0c67 48bc dc8f 26bc 0594 a03c cfee 373d
00000290: 7e75 e53c 147c 4e3c 5e33 43bd 5c24 9a3b
000002a0: 2b27 a33c db4b 11bd 6b1c 1e3c fe71 82bc
000002b0: d90d 04bd 4a06 833c afaa 983c d31f 07bd
000002c0: 4f08 5c3c 8557 f0bb 92fb f83c 7af3 54bd
000002d0: c5d8 293b 0e90 5ebd f4b0 463c d4fb 0c3d
000002e0: b888 e83c ee1e b13c 017e e03c 23bb f6bc
000002f0: f1e8 2f3d b3ef cb3c 87e0 afbc fdb1 61bd
00000300: e433 37bc bebf 0cbd a22b 0f3d 4f72 853c
00000310: 3d17 9fbd 0f3a 04bc efcb 2dbd 85e1 e6bc
00000320: a434 1a3d 1ce8 63bd 7854 3d3d 2c55 5ebc
00000330: 4f8e 49bd 6eab 5bbc d97b c33c 9f7f 4a3d
00000340: 7ccc 2c3d d521 8abc bce4 d8bc 2768 14bd
00000350: 25d5 1e3d 0827 babc 1ac8 7abd 5bc4 3ebd
00000360: 6780 a33c 6257 6d3d 7d00 083d 3911 b93c
00000370: b5dd 98bc dde3 0ebd beb7 c43c 346a c0bc
00000380: f3bd 8e3c 7cd6 433b 54e3 083d 3041 083c
00000390: 6b7c 9fbb ebc3 bd3a 0747 dd3c 0b86 5f3b
000003a0: 0bf1 343d 5933 37bd 60d9 d03c 791c eabc
000003b0: 0e8e b93b 9c9d ee3c 4444 ea3a b87d 5abb
000003c0: dc1d b73c 9207 9ebc 385e 4d3d 17b4 5fbd
000003d0: e07e 0ebd 40ed 6f3d c2cd 833c c50c 5b3c
000003e0: cf9c 89bb e022 40bb b539 f63b 336e 40bd
000003f0: e9fc c03c 3f5d f53c 0205 07bd 4d1f b6b9

encoder.0.bias f4 [128]
-0.029597625 -0.0025479167 -0.026238214 0.050447118 -0.016666783 -0.0142902555 0.03921191 -0.055287033
-0.0037016443 -0.027175475 0.00039846337 -0.033879325 0.04148487 -0.025482792 0.025515791 0.013011336
-0.045175012 0.0039673103 0.01707479 0.051763117 0.04699593 -0.013444956 0.04270955 0.011738921
-0.050502524 -0.023251759 -0.021291714 -0.03236369 0.0538171 -0.05280498 -0.019305343 0.031269945
-0.03838859 -0.028940855 -0.022959474 -0.005088975 0.05610161 -0.045729194 0.0014006161 0.0023359417
0.03622135 -0.034667145 0.042837434 0.030665409 -0.018224064 0.02868496 -0.012466381 -0.023581548
0.01919568 0.040749226 0.048700605 0.028666599 -0.028313983 -0.04605361 8.859982e-05 -0.0006259515
-0.05089809 -0.014390236 0.016535226 -0.015537589 -0.0373467 -0.026556756 -0.007923043 -0.0005846992
0.045343086 -0.0418505 -0.015020521 0.023871452 -0.00505273 0.052248653 -0.049084846 0.0528681
-0.009951829 0.032548808 0.014619645 -0.011098864 -0.020509643 -0.035114355 0.0053606527 0.019206706
0.034690168 0.055604354 -0.055040736 0.051148824 -0.0008340528 0.013139942 0.008474675 -0.02429918
-0.046128284 -0.048661653 -0.056715634 0.028934468 -0.01186258 0.023272522 0.010296992 -0.003774684
0.040426165 0.024279183 -0.032081857 0.028226774 0.04404047 -0.0031503553 -0.047300175 0.0121365925
0.031459372 -0.010984431 -0.0066309497 -0.04593852 0.046624724 -0.031255007 -0.02834901 -0.03423541
0.021846857 0.03592432 0.025513802 0.0020810373 0.01890922 -0.0058298307 0.015856942 0.0559873
-0.05196556 -0.02505782 -0.043171603 0.051920947 0.05405199 0.02581339 -0.029388893 0.01691202
00000000: b876 f2bc f3fa 26bb 86f1 d6bc a3a1 4e3d
00000010: c788 88bc ad21 6abc ab9c 203d a874 62bd
00000020: 4997 72bb 1a9f debc d9e8 d039 0cc5 0abd
00000030: 0aec 293d 4ac1 d0bc 7e06 d13c 802d 553c
00000040: 6f09 39bd 3600 823b 6ee0 8b3c 9005 543d
00000050: ce7e 403d 3c48 5cbc 36f0 2e3d 9a54 403c
00000060: bcdb 4ebd 797a bebc f66b aebc ca8f 04bd
00000070: 526f 5c3d 094a 58bd 3d26 9ebc ea14 003d
00000080: 5b3d 1dbd 5f15 edbc 8215 bcbc 6bc1 a6bb
00000090: cdca 653d 894e 3bbd e194 b73a 9916 193b
000000a0: d75c 143d 23ff 0dbd 4e76 2f3d 0636 fb3c
000000b0: a24a 95bc b9fc ea3c cb3f 4cbc 172e c1bc
000000c0: 4240 9d3c a9e8 263d 497a 473d 37d6 ea3c
000000d0: baf2 e7bc b6a2 3cbd abce b938 e516 24ba
000000e0: 847a 50bd 06c5 6bbc e274 873c 5f91 7ebc
000000f0: daf8 18bd 8e8d d9bc a7cf 01bc 8046 19ba
00000100: acb9 393d 6e6b 2bbd a218 76bc 108e c33c
00000110: 5f91 a5bb af02 563d 310d 49bd 398c 583d
00000120: ff0c 23bc e651 053d 3c87 6f3c 02d8 35bc
00000130: d703 a8bc 12d4 0fbd 6aa8 af3b 6257 9d3c
00000140: 4717 0e3d 64c1 633d 6572 61bd 6e81 513d
00000150: 56a4 5aba e948 573c 5dd9 0a3c 130f c7bc
00000160: 03f1 3cbd 7151 47bd a74e 68bd fa07 ed3c
00000170: 445b 42bc 04a6 be3c b7b4 283c b060 77bb
00000180: e895 253d 23e5 c63c 4468 03bd d63b e73c
00000190: c863 343d 3176 4ebb d4bd 41bd 8fd8 463c
000001a0: 8bdb 003d 0bf8 33bc 7048 d9bb 082a 3cbd
000001b0: 91f9 3e3d 4005 00bd 2f3c e8bc 6e3a 0cbd
000001c0: 2ef8 b23c 6125 133d 5202 d13c 0362 083b
000001d0: 82e7 9a3c 2a08 bfbb 6be6 813c f052 653d
000001e0: d7d9 54bd 0f46 cdbc b5d4 30bd 0fab 543d
000001f0: 9f65 5d3d 9a76 d33c fac0 f0bc 148b 8a3c

encoder.1.weight f4 [128]
1.0029626 1.0464907 1.0012796 0.9714428 0.98287016 0.9990898 0.9726267 1.0203087
0.99981195 1.004083 0.99452317 1.0077841 0.9668424 0.9967934 1.0005326 0.99461484
0.9796322 0.9992458 1.005462 0.994516 1.0098021 1.0130534 1.0511233 1.06712
0.9837965 1.0078074 0.9862056 1.0931623 0.99057364 0.97866404 1.010172 0.9706444
0.9902483 0.9740576 0.98365456 0.995615 1.0006591 1.0109103 0.9781985 0.99386185
0.9851883 0.99245554 1.0293283 0.97589934 1.0197785 0.9669106 1.0095911 0.9908983
0.99364483 0.9888802 0.9707029 1.0056859 1.0209117 0.99810785 0.99331594 0.9941277
0.99106914 1.0641898 1.0281854 0.98718613 0.9961718 0.98113513 0.9923956 1.0254631
0.99659616 0.9890612 0.99024117 1.004392 0.9753109 0.98899233 0.9926863 0.9994875
0.95810026 1.0050007 0.9732934 1.0141183 0.9988426 1.0029894 0.98716575 0.98417246
1.0014752 0.99883795 0.9906103 1.0031979 0.98318285 0.9965015 0.98331493 1.0240644
0.9920915 0.9919193 1.0010519 0.9877777 0.99631494 1.0105202 1.0029225 0.99878955
0.99701667 1.0274446 0.97741616 1.006537 0.99604166 1.0073687 1.0140845 1.0221999
0.97036755 1.0082034 0.99616265 0.98895204 0.99092907 1.0038586 0.99473536 0.9991501
1.0037332 1.0075746 1.0216182 1.014819 0.99846363 0.9877844 1.0029663 0.97750056
0.9862832 0.99364287 1.0096408 1.0200132 0.9830452 1.0073899 1.0001384 1.0550659
00000000: 1461 803f 68f3 853f ee29 803f 7ab0 783f
00000010: 619d 7b3f 59c4 7f3f 10fe 783f 7a99 823f
00000020: adf3 7f3f cb85 803f 1299 7e3f 12ff 803f
00000030: fc82 773f da2d 7f3f 7411 803f 149f 7e3f
00000040: 2dc9 7a3f 93ce 7f3f fbb2 803f 9a98 7e3f
00000050: 3241 813f bcab 813f 358b 863f 6397 883f
00000060: 16da 7b3f d5ff 803f f877 7c3f beec 8b3f
00000070: 3c96 7d3f ba89 7a3f 514d 813f 277c 783f
00000080: ea80 7d3f d75b 793f c9d0 7b3f a0e0 7e3f
00000090: 9915 803f 8265 813f 386b 7a3f bb6d 7e3f
000000a0: 4d35 7c3f 9111 7e3f 08c1 833f 8ad4 793f
000000b0: 1a88 823f 7487 773f 483a 813f 83ab 7d3f
000000c0: 825f 7e3f 4127 7d3f fc7f 783f 51ba 803f
000000d0: 3cad 823f ff83 7f3f f449 7e3f 277f 7e3f
000000e0: b5b6 7d3f 5f37 883f 949b 833f 3bb8 7c3f
000000f0: 1d05 7f3f ac2b 7b3f a30d 7e3f 6042 833f
00000100: ed20 7f3f 1d33 7d3f 7280 7d3f eb8f 803f
00000110: faad 793f 9a2e 7d3f b020 7e3f 6ade 7f3f
00000120: 0f46 753f dda3 803f c229 793f a1ce 813f
00000130: 26b4 7f3f f561 803f e5b6 7c3f baf2 7b3f
00000140: 5730 803f d8b3 7f3f a398 7d3f ca68 803f
00000150: dfb1 7b3f b91a 7f3f 87ba 7b3f 8b14 833f
00000160: b5f9 7d3f 6cee 7d3f 7822 803f 00df 7c3f
00000170: 7f0e 7f3f ba58 813f c45f 803f acb0 7f3f
00000180: 7c3c 7f3f 4e83 833f f237 7a3f 34d6 803f
00000190: 96fc 7e3f 75f1 803f 85cd 813f 72d7 823f
000001a0: 026a 783f cf0c 813f 8404 7f3f f62b 7d3f
000001b0: 87ad 7d3f 707e 803f faa6 7e3f 4dc8 7f3f
000001c0: 547a 803f 34f8 803f 63c4 823f 97e5 813f
000001d0: 509b 7f3f 70df 7c3f 3361 803f 7a3d 7a3f
000001e0: 0e7d 7c3f 615f 7e3f e93b 813f cb8f 823f
000001f0: daa8 7b3f 27f2 803f 8904 803f 660c 873f

encoder.1.bias f4 [128]
0.081619516 0.050721258 0.026962172 0.021146502 -0.0031912923 0.0006765932 0.017836398 0.07095157
0.03398988 0.011802944 -0.009080961 0.02441495 0.0025102452 0.008212597 0.0113134375 -0.0084598
0.0066467635 -0.0046031075 -0.020877322 -0.009404232 0.027031465 0.015860602 0.02143349 -0.008419155
-0.008742513 0.009904682 -0.022076704 0.03305941 -0.016381098 0.024491616 0.013766623 0.0027476484
0.004699481 0.01668914 0.027750248 -0.004628819 0.011315926 0.043555085 -0.015321684 -0.01720617
0.0073878453 0.006093754 0.062250417 -0.027682757 0.06882739 -0.03446528 0.037572376 -0.017450156
0.033802222 0.010954081 0.010287587 0.0026742062 0.03307176 0.0074729198 0.0059458283 0.022321545
0.028395608 0.024125261 0.025034947 -0.03152553 0.0050177146 0.016078796 0.023446208 0.008398019
0.045937166 0.010564309 0.0166184 -0.0226651 0.027161209 0.023994483 0.024511509 0.03430127
0.021225506 0.0058727376 0.023276703 0.040272653 0.032409843 0.033144437 -0.0154893985 -0.036417842
0.0087125255 0.037841994 0.0010460711 0.012783352 -0.027442807 -0.004466298 -0.028090497 0.032658312
-0.02403961 0.035158757 0.008130649 -0.0065377047 0.0032358433 0.015044468 0.0074421056 0.017729968
0.0074322843 0.042068288 0.008838153 0.00899539 0.010978316 0.022191385 0.049157802 -0.0051200893
-0.017708188 0.08889139 0.026414497 0.02640587 0.01226754 0.012496316 0.010476921 0.016163146
-0.010345071 -0.016616128 0.033419315 0.021224476 0.04122555 -0.0018388984 0.01423612 -0.0037071288
-0.004187367 0.0053658793 0.008026231 0.029648738 -0.018492278 0.026400313 0.018462116 0.10894174
00000000: 2228 a73d 18c1 4f3d c6df dc3c 6e3b ad3c
00000010: 0025 51bb 675d 313a a31d 923c 0f4f 913d
00000020: f938 0b3d 2361 413c 50c8 14bc dc01 c83c
00000030: ed82 243b 218e 063c ff5b 393c f99a 0abc
00000040: 18cd d93b aad5 96bb eb06 abbc 3514 1abc
00000050: 1771 dd3c 18ee 813c 4995 af3c 7ff0 09bc
00000060: c23c 0fbc 3f47 223c 34da b4bc 4e69 073d
00000070: a731 86bc a4a2 c83c 678d 613c e411 343b
00000080: 1bfe 993b aab7 883c 7d54 e33c 59ad 97bb
00000090: 6f66 393c d166 323d cd07 7bbc f4f3 8cbc
000000a0: bd15 f23b 1dae c73b 4bfa 7e3d f3c6 e2bc
000000b0: 60f5 8c3d 772b 0dbd 7ee5 193d a1f3 8ebc
000000c0: 3374 0a3d bf78 333c 448d 283c bc41 2f3b
000000d0: 4176 073d 65df f43b 39d5 c23b acdb b63c
000000e0: e89d e83c 57a2 c53c 1716 cd3c ea20 01bd
000000f0: a46b a43b aeb7 833c 4312 c03c d897 093c
00000100: 9c28 3c3d ec15 2d3c 5023 883c 29ac b9bc
00000110: 2f81 de3c 1490 c43c 5ccc c83c 7d7f 0c3d
00000120: 1de1 ad3c 1870 c03b c9ae be3c f0f4 243d
00000130: 2fc0 043d 76c2 073d 3fc7 7dbc e02a 15bd
00000140: fbbe 0e3c 3500 1b3d 521c 893a 4471 513c
00000150: bdcf e0bc 065a 92bb 0b1e e6bc b9c4 053d
00000160: b7ee c4bc a102 103d 6a36 053c 3e3a d6bb
00000170: 7110 543b 137d 763c e8dc f33b 703e 913c
00000180: 858a f33b cc4f 2c3d e7cd 103c 6661 133c
00000190: 65de 333c b5ca b53c b159 493d 6cc6 a7bb
000001a0: c310 91bc b00c b63d 3763 d83c 2051 d83c
000001b0: cbfd 483c 59bd 4c3c 64a7 2b3c 9368 843c
000001c0: 5f7e 29bc 8c1e 88bc b1e2 083d f4de ad3c
000001d0: 1fdc 283d 3107 f1ba 9d3e 693c 4df3 72bb
000001e0: 2e36 89bb 42d4 af3b 7480 033c e9e1 f23c
000001f0: 1e7d 97bc 7845 d83c dd3d 973c d91c df3d

encoder.1.running_mean f4 [128]
-0.029412506 -0.0026450087 -0.025751306 0.051066127 -0.018005045 -0.014006612 0.04043979 -0.054211933
-0.0038205236 -0.028352275 -0.00090018084 -0.03411258 0.04172793 -0.025818393 0.026126219 0.012405245
-0.046220254 0.0048344294 0.016992472 0.05041115 0.047923174 -0.012846563 0.04210149 0.012113922
-0.04959965 -0.024113065 -0.022645094 -0.032455765 0.054571647 -0.053108327 -0.020437634 0.03220138
-0.03800012 -0.029254349 -0.022395188 -0.0047295564 0.0552015 -0.0460285 0.002793292 0.002201181
0.036886897 -0.03531343 0.043142743 0.029682996 -0.017826809 0.029069278 -0.013059277 -0.023282941
0.01892992 0.041521594 0.049125824 0.029924147 -0.027956853 -0.04645858 0.00023994569 -0.0012726069
-0.050350763 -0.014144758 0.016678596 -0.014494848 -0.037758097 -0.025951557 -0.007375756 -0.0009231194
0.04613086 -0.041648302 -0.014589549 0.022928359 -0.0042900266 0.053050734 -0.047796354 0.05180527
-0.009253009 0.033169787 0.013680239 -0.010461571 -0.020277243 -0.033859186 0.0061901743 0.01830928
0.034801356 0.05405552 -0.054514155 0.052057993 -0.0013268356 0.013483288 0.007920142 -0.024321288
-0.045073703 -0.048057996 -0.056534693 0.028396908 -0.012457589 0.024140038 0.009022789 -0.0033973928
0.0402925 0.023861095 -0.03274004 0.028140137 0.04352462 -0.0027583742 -0.04637663 0.0116015505
0.03204308 -0.009979747 -0.0076271817 -0.04614933 0.045776945 -0.030683737 -0.02890502 -0.03355366
0.021350546 0.035635065 0.024293974 0.0014643401 0.019435612 -0.006086544 0.016627656 0.05587268
-0.051563405 -0.024599107 -0.042323098 0.05172701 0.05333849 0.027006103 -0.028377835 0.017107053
00000000: 7ff2 f0bc e257 2dbb 67f4 d2bc b72a 513d
00000010: 517f 93bc fd7b 65bc 31a4 253d 550d 5ebd
00000020: c061 7abb 0843 e8bc 1dfa 6bba a2b9 0bbd
00000030: e8ea 2a3d 1881 d3bc a706 d63c 5e3f 4b3c
00000040: 7351 3dbd 226a 9e3b cc33 8b3c ec7b 4e3d
00000050: 174b 443d 647a 52bc 9d72 2c3d 7979 463c
00000060: 0129 4bbd c388 c5bc 3482 b9bc 56f0 04bd
00000070: 8586 5f3d 1e88 59bd d36c a7bc 98e5 033d
00000080: 04a6 1bbd d1a6 efbc 1d76 b7bc 65fa 9abb
00000090: f81a 623d 6188 3cbd aa0f 373b b041 103b
000000a0: b716 173d d1a4 10bd 72b6 303d c129 f33c
000000b0: 8709 92bc b222 ee3c 94f6 55bc debb bebc
000000c0: eb12 9b3c 8c12 2a3d 2938 493d 7c23 f53c
000000d0: c505 e5bc 5a4b 3ebd ee99 7b39 9acd a6ba
000000e0: 9a3c 4ebd 6abf 67bc 8da1 883c cd7b 6dbc
000000f0: 3ca8 1abd 5c98 d4bc 53b0 f1bb 7ffd 71ba
00000100: b6f3 3c3d 6997 2abd 0109 6fbc 41d4 bb3c
00000110: 5a93 8cbb ba4b 593d 1cc6 43bd c331 543d
00000120: ef99 17bc 0bdd 073d 1523 603c 0267 2bbc
00000130: 761c a6bc eeaf 0abd f2d6 ca3b 58fd 953c
00000140: de8b 0e3d 5269 5d3d 3c4a 5fbd c33a 553d
00000150: 37e9 adba 02e9 5c3c 7cc3 013c 703d c7bc
00000160: 349f 38bd 76d8 44bd ec90 67bd a2a0 e83c
00000170: ea1a 4cbc 54c1 c53c 52d4 133c cba6 5ebb
00000180: c009 253d 5878 c33c 6c1a 06bd 2586 e63c
00000190: df46 323d d7c5 34bb 6cf5 3dbd 6e14 3e3c
000001a0: 9b3f 033d 1882 23bc 70ed f9bb 1407 3dbd
000001b0: 9b80 3b3d 765c fbbc 38ca ecbc 906f 09bd
000001c0: 57e7 ae3c 13f6 113d 2804 c73c 1aef bf3a
000001d0: 6f37 9f3c a271 c7bb b936 883c c0da 643d
000001e0: 2634 53bd 1184 c9bc fc5a 2dbd b4df 533d
000001f0: 7679 5a3d e73b dd3c a278 e8bc 1724 8c3c

encoder.1.running_var f4 [128]
0.23585604 0.27864608 0.5013499 0.32663116 0.7781631 0.5293093 0.37544075 0.29728016
0.5078185 0.6652619 0.6691836 0.3149334 0.32606155 0.48980463 0.5676686 0.81151396
0.9551959 0.5369443 0.7983069 0.6761257 0.71986055 0.4056608 0.3168195 0.26743743
0.42314842 0.65914965 0.8634147 0.30886984 0.46694112 0.43627405 0.8018647 0.47466168
0.42054766 0.5770335 0.4161663 0.69973314 0.36828744 0.4981659 0.6091056 0.4924558
0.36610666 0.62266517 0.27378535 0.4116344 0.37430075 0.45798904 0.48520777 0.7145689
0.34866133 0.80197954 0.31794223 0.68262374 0.3728195 0.5183169 0.41694483 0.6131945
0.3696806 0.28078285 0.2927037 0.6143858 0.6157976 0.32998052 0.47336128 0.3179182
0.3493687 0.4699532 0.32798132 1.0593864 0.46674868 0.40794164 0.46170017 0.88987225
0.49763826 0.7061764 0.7162863 0.39732888 0.3219352 0.5317603 0.60134006 0.6251117
0.6339664 0.87204087 0.4428041 0.67277646 0.49896535 0.57619065 0.5558703 0.20999585
0.78315544 0.28180784 0.44564736 0.66306365 0.9544645 0.44518605 0.7707436 0.5265313
0.59634393 0.35394806 0.2249477 0.48382187 0.67005336 0.34508544 0.6021796 0.5918371
0.32831338 0.5986656 0.7821246 0.3453544 0.4453541 0.6252152 0.7516814 0.3995923
0.50251746 0.37039712 0.97311157 0.40558237 0.43820813 0.7845291 0.501019 0.72952455
0.62395555 0.565849 0.76361114 0.30381617 0.68953717 0.7169805 0.6796417 0.39354682
00000000: 3f84 713e b3aa 8e3e 7858 003f 333c a73e
00000010: b235 473f d080 073f c539 c03e 1b35 983e
00000020: 6500 023f 9b4e 2a3f 9e4f 2b3f f33e a13e
00000030: 8af1 a63e acc7 fa3e bb52 113f 61bf 4f3f
00000040: b887 743f 2f75 093f d75d 4c3f 9316 2d3f
00000050: c848 383f c6b2 cf3e 2a36 a23e 8fed 883e
00000060: e9a6 d83e 08be 283f bf08 5d3f 3024 9e3e
00000070: e812 ef3e 505f df3e 0147 4d3f db06 f33e
00000080: 0652 d73e 78b8 133f c013 d53e b621 333f
00000090: 2c90 bc3e 9a0f ff3e 58ee 1b3f 2b23 fc3e
000000a0: 5572 bb3e fc66 1f3f 982d 8c3e bec1 d23e
000000b0: 59a4 bf3e 8a7d ea3e 276d f83e fded 363f
000000c0: bd83 b23e 884e 4d3f 53c9 a23e 6ec0 2e3f
000000d0: 33e2 be3e 6bb0 043f cb79 d53e 51fa 1c3f
000000e0: c746 bd3e c5c2 8f3e 42dd 953e 6348 1d3f
000000f0: e9a4 1d3f 35f3 a83e 695c f23e 2dc6 a23e
00000100: 74e0 b23e b59d f03e 2bed a73e f999 873f
00000110: aff9 ee3e badd d03e f763 ec3e abce 633f
00000120: 71ca fe3e fac7 343f 8a5e 373f b16e cb3e
00000130: b1d4 a43e 7121 083f 6cf1 193f 5207 203f
00000140: 9f4b 223f 123e 5f3f 38b7 e23e 143b 2c3f
00000150: 6378 ff3e 3b81 133f 844d 0e3f 2709 573e
00000160: e07c 483f 1e49 903e e42b e43e 8abe 293f
00000170: c957 743f 6def e33e 744f 453f c1ca 063f
00000180: ffa9 183f ae38 b53e b158 663e 80b7 f73e
00000190: 9e88 2b3f 0aaf b03e 7128 1a3f a382 173f
000001a0: b118 a83e 2642 193f 5139 483f 4bd2 b03e
000001b0: 7405 e43e 1a0e 203f 316e 403f 5d97 cc3e
000001c0: fca4 003f b1a4 bd3e d71d 793f 7ea8 cf3e
000001d0: d15c e03e e6d6 483f c842 003f 1fc2 3a3f
000001e0: 8dbb 1f3f 7bdb 103f 057c 433f cb8d 9b3e
000001f0: 8285 303f 098c 373f 00fd 2d3f f87e c93e

encoder.3.weight f4 [128, 128, 5]
-0.009615255 0.007883704 -0.002741867 -0.002760025 0.035897445 -0.024632614 0.04142164 -0.025724154
-0.023992129 -0.032954425 -0.0008120463 -0.030045673 0.041642044 -0.0007119079 -0.017216379 -0.012428093
0.011408162 0.007969308 -0.0093875425 0.016123557 0.018818635 -0.010758503 -0.004597506 0.025613042
0.01245899 0.031235501 0.03898284 -0.019811405 0.038947348 0.014923916 -0.038844597 -0.028001036
0.014943951 0.00012790294 0.025400907 -0.0020659035 -0.036208384 -0.025746884 -0.023270398 -0.010128766
-0.017574593 -0.035152283 -0.03148795 0.020995904 -0.017605703 0.0038151443 -0.037402686 -0.04598291
0.027415914 0.024685265 -0.04300196 0.033196088 0.040739518 0.004995557 -0.017365854 0.027887998
-0.021498488 -0.0042115524 -0.021720603 -0.008086338 -0.03754206 -0.006264214 -0.029247373 0.028048854
-0.00046185192 -0.011959156 0.0037530963 -0.010568749 -0.023741692 -0.028126996 0.012167808 0.009301812
0.024262968 -0.016014071 0.02382967 0.036771055 -0.042786196 0.0019422083 0.030849714 -0.020599432
0.02477454 -0.031682696 -0.01685178 0.014627231 -0.009478168 0.017173521 0.03623736 -0.0015760803
-0.021876188 0.0074461047 -0.031009011 0.009943786 -0.0049307104 -0.009913385 -0.031465724 0.0077875657
0.018238038 -0.041805193 -0.006668144 0.0132556 -0.023994572 0.010678397 -0.039692257 0.036498748
-0.01052855 -0.007537841 0.008331683 0.029183088 0.012796716 0.02684971 -0.02684596 0.025521582
-0.019659512 0.024809618 -0.020905167 -0.014023496 -0.022 -0.013050368 -0.02784396 -0.030105686
0.019231906 0.024266813 0.021826785 0.008145539 0.01754632 -0.028053258 -0.009504909 -0.019421821
0.0054157646 -0.0031741792 0.023777343 0.020590298 -0.017703053 -0.024949133 0.022528032 0.018447483
-0.028533198 0.0017954693 -0.025824312 0.030493032 -0.032264233 0.0035141874 -0.02140907 0.03157919
-0.020541074 0.02560436 0.033968233 0.004940422 0.0075065657 -0.0027938988 -0.020850748 0.012934172
-0.02577691 -0.013199926 0.041394092 -0.019171912 -0.040587727 -0.0056409575 -0.022314824 -0.012849604
-0.026349634 -0.024536341 -0.013876977 0.019845905 0.025942897 0.003321942 -0.003312253 -0.031263426
-0.024704715 0.042423587 0.005202089 -0.034038916 -0.03640337 -0.029575977 -0.01745657 0.026022227
-0.02783329 -0.019788507 0.00056516036 -0.011191764 -0.023378968 0.03845029 -0.039068427 0.021335838
-0.027015258 -0.027770892 -0.025320876 0.014596725 -0.0031655687 0.01194917 0.025009504 0.025908975
0.011070661 -0.03569566 -0.018428952 0.016973158 0.025166644 0.050478395 -0.014591579 0.0033239273
-0.0004223001 0.025847731 0.016277391 0.009323296 0.011093395 0.024563983 -0.024975404 0.013455494
-0.0070552407 -0.004750195 0.03272407 -0.0153580895 0.016414706 -0.012686347 -0.03941382 -0.016871339
0.005878587 0.0022375293 0.019228112 -0.02014841 0.01493923 -0.03683466 0.019480951 -0.01796498
-0.029741416 0.011548624 0.011040352 -0.0048871143 -0.017789343 -0.004515525 -0.01787762 0.028674835
-0.01916781 -0.027920963 0.006705519 -0.020617383 0.00070333236 0.015169656 0.00987634 0.02630051
0.031391617 0.020387858 -0.014458956 -0.024596876 -0.023006845 -0.043618836 -0.021861933 0.011556466
-0.012848736 -0.041740336 -0.011371404 0.047873605 0.03192079 0.050629105 0.006969359 -0.01692568
00000000: 4d89 1dbc a72a 013c e5b0 33bb 89e1 34bb
00000010: 3309 133d 56ca c9bc bda9 293d 76bb d2bc
00000020: 248b c4bc 38fb 06bd 81df 54ba 5822 f6bc
00000030: d990 2a3d 559f 3aba 5d09 8dbc 339f 4bbc
00000040: 4de9 3a3c b391 023c 35ce 19bc 8d15 843c
00000050: 8a29 9a3c 6f44 30bc ada6 96bb 71d2 d13c
00000060: cb20 4c3c 98e1 ff3c 78ac 1f3d 874b a2bc
00000070: 4187 1f3d 7183 743c 831b 1fbd 6e62 e5bc
00000080: 79d7 743c af1d 0639 9015 d03c 1c64 07bb
00000090: 3e4f 14bd 21eb d2bc 90a1 bebc 20f3 25bc
000000a0: 98f8 8fbc d7fb 0fbd 82f9 00bd 9aff ab3c
000000b0: d639 90bc 8007 7a3b 8f33 19bd 9358 3cbd
000000c0: 5797 e03c c138 ca3c d322 30bd 9ff8 073d
000000d0: 7bde 263d c5b1 a33b d642 8ebc 5f75 e43c
000000e0: 991d b0bc 1001 8abb 68ef b1bc 8f7c 04bc
000000f0: b4c5 19bd 0944 cdbb 3098 efbc b6c6 e53c
00000100: b724 f2b9 56f0 43bc 82f6 753b 8c28 2dbc
00000110: f07d c2bc 966a e6bc 7c5b 473c a166 183c
00000120: 22c3 c63c f12f 83bc 7136 c33c 3f9d 163d
00000130: 9440 2fbd b291 fe3a 8ab8 fc3c 24c0 a8bc
00000140: faf3 ca3c b7c5 01bd be0c 8abc 0ea7 6f3c
00000150: 514a 1bbc 7caf 8c3c a06d 143d 7b94 ceba
00000160: b135 b3bc 74fe f33b 9c06 febc 43eb 223c
00000170: cc91 a1bb c06b 22bc 34e2 00bd d62e ff3b
00000180: f067 953c ec3b 2bbd 7280 dabb 042e 593c
00000190: 4490 c4bc 71f4 2e3c 5994 22bd b67f 153d
000001a0: f07f 2cbc feff f6bb 9d81 083c 5f11 ef3c
000001b0: 51a9 513c ecf3 db3c 0fec dbbc a312 d13c
000001c0: fc0c a1bc 8a3d cb3c 5041 abbc cec2 65bc
000001d0: 5839 b4bc 36d1 55bc 0419 e4bc 33a0 f6bc
000001e0: 3b8c 9d3c 32cb c63c 16ce b23c de74 053c
000001f0: 4dbd 8f3c f2cf e5bc 7aba 1bbc 831a 9fbc
00000200: ba76 b13b e405 50bb b4c8 c23c fcac a83c
00000210: fe05 91bc 2062 ccbc b58c b83c 2d1f 973c
00000220: 74be e9bc f455 eb3a 828d d3bc 86cc f93c
00000230: 8027 04bd 484e 663b 1362 afbc 2e59 013d
00000240: c145 a8bc 3cc0 d13c 4622 0b3d 43e3 a13b
00000250: a3f9 f53b d819 37bb 30cf aabc d9e9 533c
00000260: 192a d3bc 8144 58bc da8c 293d 6a0e 9dbc
00000270: 513f 26bd c8d7 b8bb 94cd b6bc 2587 52bc
00000280: 30db d7bc 7000 c9bc 435c 63bc e193 a23c
00000290: 3386 d43c f0b4 593b 6212 59bb 140e 00bd
000002a0: 8b61 cabc 5bc4 2d3d 4976 aa3b 646c 0bbd
000002b0: b31b 15bd 5249 f2bc 1501 8fbc 912c d53c
000002c0: a402 e4bc 821b a2bc 4527 143a a95d 37bc
000002d0: 4085 bfbc 0d7e 1d3d 3706 20bd 7fc8 ae3c
000002e0: 1a4f ddbc c87f e3bc ba6d cfbc 1a27 6f3c
000002f0: 6e75 4fbb 74c6 433c bbe0 cc3c 0f3f d43c
00000300: b861 353c 9d35 12bd 50f8 96bc 4b0b 8b3c
00000310: 472a ce3c 6fc2 4e3d 8511 6fbc 3fd6 593b
00000320: 2968 ddb9 9fbe d33c 2a58 853c bdc0 183c
00000330: 12c1 353c 683a c93c 3899 ccbc 6f74 5c3c
00000340: a62f e7bb 86a7 9bbb ad09 063d 7fa0 7bbc
00000350: 2278 863c 65da 4fbc 6370 21bd c335 8abc
00000360: 29a1 c03b 83a3 123b 4684 9d3c 470e a5bc
00000370: acc3 743c f1df 16bd 8496 9f3c 4b2b 93bc
00000380: 45a4 f3bc 7136 3d3c 98e2 343c 1624 a0bb
00000390: f5ba 91bc f8f6 93bb 1674 92bc 7de7 ea3c
000003a0: d005 9dbc 81ba e4bc f8b9 db3b c9e5 a8bc
000003b0: d65f 383a 268a 783c 5fd0 213c 2b74 d73c
000003c0: 7f94 003d 7004 a73c 42e5 6cbc 637f c9bc
000003d0: da78 bcbc aaa9 32bd cc17 b3bc 5557 3d3c
000003e0: 8183 52bc eaf7 2abd 204f 3abc 1d17 443d
000003f0: 60bf 023d 7760 4f3d 385f e43b b9a7 8abc

encoder.3.bias f4 [128]
-0.027426744 0.029623505 0.010044465 0.03900145 0.01577474 -0.03161687 -0.027385734 -0.026101604
-0.00740596 0.0142349545 0.036805242 0.013662584 -0.038901422 -0.037911706 -0.017495362 -0.0050651324
0.0036562127 0.009016332 0.02329657 -0.015367199 -0.033205166 -0.027344164 -0.011607926 0.011151906
-0.021734353 -0.0005449099 0.026100537 0.021964516 -0.01670675 -0.0028039662 -0.0087909745 -0.0040053832
0.036613952 -0.017470112 -0.03283147 -0.023126028 0.020868445 -0.0033157882 -0.009469452 -0.025218356
-0.026368873 0.02664766 0.012248206 -0.031139538 -0.008064455 -0.017783735 0.003212615 -0.00015421759
0.001889788 -0.0054364507 0.009572467 0.020423492 -0.014826291 0.007804121 -0.022457663 0.031172933
-0.03407562 -0.022697471 -0.024494305 0.019152774 0.026803909 0.029192867 -0.03799627 -0.00234538
0.009479167 -0.0078373635 0.03484799 0.036910728 -0.0009040808 -0.039382238 0.0034993107 -0.00422421
-0.0038831793 -0.006765054 -0.026418537 -0.03916524 0.0019395559 0.02993729 0.034905963 -0.023986168
-0.0014682378 -0.008874006 0.021381909 -0.021182796 0.005064367 0.00033062528 -0.025562847 -0.008617504
0.037238564 -0.02492674 0.033094287 0.014804439 -0.0113705965 0.014884367 -0.023400309 -0.030607194
-0.0041855164 -0.03886108 -0.034661215 0.035304856 -0.005487629 0.03475689 0.0155453365 -0.0032589075
-0.02638736 -0.020704487 -0.015153321 0.007913923 -0.038036715 0.024365209 -0.03896502 0.03801456
-0.0070135514 -0.013509919 -0.0028870932 -0.038583104 0.0050048013 -0.035115626 -0.008922301 -0.029374072
0.03722678 -0.017893197 0.023954704 0.032631703 -0.010627223 0.031535335 -0.02999324 -0.020575738
00000000: 0dae e0bc feac f23c 8a91 243c fcbf 1f3d
00000010: 073a 813c b180 01bd 0c58 e0bc 08d3 d5bc
00000020: b2ad f2bb ba39 693c 18c1 163d 08d9 5f3c
00000030: 1957 1fbd 4e49 1bbd 6f52 8fbc 69f9 a5bb
00000040: 129d 6f3b 3db9 133c 73d8 be3c b4c6 7bbc
00000050: 2402 08bd de00 e0bc 2c2f 3ebc 7cb6 363c
00000060: 3e0c b2bc 49d8 0eba cbd0 d53c eeee b33c
00000070: 98dc 88bc bfc2 37bb 0508 10bc 973f 83bb
00000080: 83f8 153d 7b1d 8fbc 4b7a 06bd cc72 bdbc
00000090: 4df4 aa3c b24d 59bb c325 1bbc ba96 cebc
000000a0: 8903 d8bc 324c da3c b3ac 483c 5818 ffbc
000000b0: c720 04bc 32af 91bc bc8a 523b 78b5 21b9
000000c0: c3b2 f73a 4124 b2bb d6d5 1c3c 2b4f a73c
000000d0: f9e9 72bc b6b9 ff3b 22f9 b7bc 615e ff3c
000000e0: e192 0bbd 0cf0 b9bc 48a8 c8bc 47e6 9c3c
000000f0: df93 db3c e125 ef3c faa1 1bbd f2b4 19bb
00000100: 824e 1b3c 4968 00bc c4bc 0e3d b42f 173d
00000110: d6ff 6cba 454f 21bd b154 653b 3e6b 8abb
00000120: f07c 7ebb 63ad ddbb b06b d8bc bb6b 20bd
00000130: b238 fe3a 0c3f f53c 8ef9 0e3d a47e c4bc
00000140: e371 c0ba 4764 11bc 1d29 af3c 8b87 adbc
00000150: fdf2 a53b c657 ad39 2d69 d1bc 6e30 0dbc
00000160: 7787 183d 2a33 ccbc e08d 073d 518e 723c
00000170: bd4b 3abc 8fdd 733c 01b2 bfbc f0bb fabc
00000180: a826 89bb cc2c 1fbd ebf8 0dbd d39b 103d
00000190: 92d1 b3bb 3e5d 0e3d deb1 7e3c 6593 55bb
000001a0: 4e2a d8bc 759c a9bc a345 78bc 66a9 013c
000001b0: 63cc 1bbd 8c99 c73c c999 1fbd 28b5 1b3d
000001c0: efd1 e5bb b558 5dbc 6335 3dbb 5109 1ebd
000001d0: 51ff a33b 67d5 0fbd d82e 12bc e5a1 f0bc
000001e0: 1c7b 183d c194 92bc a83c c43c d2a8 053d
000001f0: ce1d 2ebc 322b 013d 62b4 f5bc 738e a8bc

encoder.4.weight f4 [128]
1.001209 0.99974877 0.9644225 1.00248 0.99986166 1.0072931 1.012848 1.0449966
0.9903918 0.99025965 0.98738647 0.98948234 0.99572253 1.011833 0.99733037 0.99285287
0.9807513 1.0359433 0.98627985 0.999482 0.9797219 1.0329984 1.0282427 1.0072546
0.9950724 0.98780656 1.0106038 0.98929155 1.0115354 1.0514854 0.9919015 0.98651314
0.9852441 0.98916787 0.9791635 1.000775 0.9780534 1.0045166 1.0155158 1.0341392
1.0173038 0.97917175 0.9813276 1.0020264 0.9960917 1.0137371 0.9786976 0.99987334
0.97834265 0.9943022 0.99388105 0.99202996 1.0028014 1.0036651 0.9881012 0.9984863
0.97000957 0.99425524 1.0021944 0.99934095 0.98401934 1.0115423 1.0253456 0.98824483
0.98922604 0.9866618 0.9968575 0.9912694 1.0018476 0.966924 1.0028981 1.0123874
1.0493345 0.9965667 0.999952 1.0049108 1.0142983 0.9768453 1.0128897 0.99735194
0.9988954 0.9883095 0.9879812 0.98413765 1.0088383 1.0176405 0.98026544 0.9969588
0.9936976 0.9848256 0.99567384 0.9955857 1.0048466 1.0027936 0.98517656 0.993374
0.9957814 0.9885638 0.9940732 1.0203311 0.99540997 0.99188334 1.0000588 0.99677634
1.0207334 1.0187374 1.0016154 1.0119126 0.98816574 0.9940007 1.0078592 0.9782498
1.0100948 1.0070124 1.0391939 0.99665874 1.0579591 0.99934125 1.0065924 1.0043799
0.99357384 0.9954785 1.0126413 1.0571115 0.9915234 1.001297 1.0107775 0.9788132
00000000: 9e27 803f 89ef 7f3f 65e4 763f 4451 803f
00000010: eff6 7f3f fbee 803f 01a5 813f 73c2 853f
00000020: 518a 7d3f a881 7d3f 5cc5 7c3f b74e 7d3f
00000030: ace7 7e3f be83 813f 0b51 7f3f 9b2b 7e3f
00000040: 8412 7b3f ca99 843f d67c 7c3f 0dde 7f3f
00000050: 0ecf 7a3f 4b39 843f 759d 833f b8ed 803f
00000060: 11bd 7e3f e4e0 7c3f 775b 813f 3642 7d3f
00000070: fe79 813f 1397 863f 42ed 7d3f 208c 7c3f
00000080: f538 7c3f 1b3a 7d3f 76aa 7a3f 6519 803f
00000090: b561 7a3f 0094 803f 6cfc 813f ac5e 843f
000000a0: 0337 823f 00ab 7a3f 4938 7b3f 6742 803f
000000b0: deff 7e3f 23c2 813f ed8b 7a3f b3f7 7f3f
000000c0: aa74 7a3f 978a 7e3f fd6e 7e3f adf5 7d3f
000000d0: cc5b 803f 1978 803f 33f4 7c3f cc9c 7f3f
000000e0: 8c52 783f 8387 7e3f e847 803f cfd4 7f3f
000000f0: b1e8 7b3f 387a 813f 863e 833f 9dfd 7c3f
00000100: eb3d 7d3f de95 7c3f 0e32 7f3f d5c3 7d3f
00000110: 8b3c 803f 5588 773f f75e 803f e995 813f
00000120: 9850 863f ff1e 7f3f dbfc 7f3f eba0 803f
00000130: 87d4 813f 8912 7a3f 5fa6 813f 7552 7f3f
00000140: 9cb7 7f3f da01 7d3f 56ec 7c3f 72f0 7b3f
00000150: 9d21 813f 0b42 823f adf2 7a3f b138 7f3f
00000160: f762 7e3f 881d 7c3f 7be4 7e3f b4de 7e3f
00000170: d09e 803f 8a5b 803f 8834 7c3f c24d 7e3f
00000180: 88eb 7e3f 8412 7d3f 957b 7e3f 369a 823f
00000190: 30d3 7e3f 11ec 7d3f ed01 803f bc2c 7f3f
000001a0: 64a7 823f fd65 823f ef34 803f 5a86 813f
000001b0: 6ef8 7c3f d476 7e3f 8801 813f 946e 7a3f
000001c0: c94a 813f c8e5 803f 4e04 853f 0725 7f3f
000001d0: 346b 873f d4d4 7f3f 05d8 803f 858f 803f
000001e0: db5a 7e3f aed7 7e3f 3b9e 813f 6e4f 873f
000001f0: 7ad4 7d3f 802a 803f 2861 813f 8093 7a3f

encoder.4.bias f4 [128]
0.006458683 0.0014032793 0.00166651 0.009232639 0.004560408 0.030903984 0.035599593 0.01933506
0.010636866 0.025712674 0.0055207484 0.0017381859 0.027679559 0.024415463 0.016489591 0.027929377
0.0174803 0.03131525 0.004500552 0.016131088 -0.006269276 0.020254394 0.028689397 -0.00580405
0.009820377 0.017315444 0.050934166 0.01491702 0.019240059 0.02749422 0.01973748 -0.0013664202
0.016913248 0.010600355 -0.011479261 0.018776795 -0.0011763085 0.014363212 0.013840004 0.026671646
0.042212516 -0.0060012005 0.0011973904 0.0074259685 0.0031771513 0.02851346 0.022196721 0.013842255
-0.0012054296 0.012914409 0.02565745 0.0042846194 0.01931912 0.011297853 0.024555331 -0.001379614
-0.005843954 0.007902205 0.012881359 0.011067559 0.002149309 0.023569996 0.003573307 -0.011229186
0.010688982 0.016985832 0.00081271 0.0017308501 0.012856892 0.009004179 0.014686994 0.0126151
0.036831655 0.017499445 0.0029180297 0.009560223 0.040153332 -0.0051129237 0.022038342 0.021880694
0.018626913 0.0133858435 0.03199096 -0.012652764 0.024016168 0.047456875 0.0017272999 0.02405653
0.028065167 -0.00316405 0.0028253698 0.0097055575 0.011189087 0.028931532 -0.0001894582 0.0030180505
0.017383182 0.021585345 0.014901878 0.029323645 0.014308503 -0.0006367135 0.025169192 0.026575575
-0.004846658 0.019077502 0.018763695 0.0030280403 0.02828321 0.028210977 -0.0042743627 0.01933485
0.0009447658 0.030986877 0.020879313 0.0059975553 0.030794596 0.00950485 0.0144728115 0.013271807
0.017698027 0.02617042 0.005921866 0.036749452 0.014838525 0.02269467 0.0046631703 0.0077433153
00000000: 5ca3 d33b 3dee b73a cc6e da3a 7f44 173c
00000010: 7a6f 953b 5a2a fd3c e1d0 113d 8f64 9e3c
00000020: 4046 2e3c 63a3 d23c 65e7 b43b d7d3 e33a
00000030: 3ec0 e23c f002 c83c 2e15 873c 26cc e43c
00000040: d932 8f3c 6b44 003d 5e79 933b 5825 843c
00000050: 806e cdbb 8bec a53c 0706 eb3c e62f bebb
00000060: a6e5 203c 1ed9 8d3c 58a0 503d 8466 743c
00000070: 549d 9d3c 8f3b e13c 7fb0 a13c 7419 b3ba
00000080: a78d 8a3c 1dad 2d3c 8313 3cbc cbd1 993c
00000090: 5d2e 9aba ad53 6b3c 2fc1 623c 7f7e da3c
000000a0: 08e7 2c3d b8a5 c4bb c1f1 9c3a 8a55 f33b
000000b0: c137 503b 0f95 e93c e6d5 b53c a0ca 623c
000000c0: 81ff 9dba f596 533c 932f d23c fe65 8c3b
000000d0: 2243 9e3c a11a 393c 4328 c93c 2ad4 b4ba
000000e0: a47e bfbb 4078 013c 560c 533c b554 353c
000000f0: 6cdb 0c3b dd15 c13c 252e 6a3b 9ffa 37bc
00000100: d720 2f3c df25 8b3c 0b0c 553a b1dd e23a
00000110: b7a5 523c 4486 133c b8a1 703c 90af 4e3c
00000120: cadc 163d ff5a 8f3c 6a3c 3f3b 7ba2 1c3c
00000130: d277 243d 508a a7bb c189 b43c 243f b33c
00000140: 7897 983c 4c50 5b3c f408 033d 8a4d 4fbc
00000150: 8ebd c43c 2462 423d 9166 e23a 3312 c53c
00000160: ece8 e53c f35b 4fbb d729 393b 0f04 1f3c
00000170: 6f52 373c d201 ed3c 4ca9 46b9 7cca 453b
00000180: 2d67 8e3c c0d3 b03c 0227 743c 2438 f03c
00000190: 366e 6a3c 1fe9 26ba 9f2f ce3c 05b5 d93c
000001a0: b7d0 9ebb 6c48 9c3c 52b6 993c 1672 463b
000001b0: 31b2 e73c b51a e73c f40f 8cbb 1f64 9e3c
000001c0: 29aa 773a 31d8 fd3c 180b ab3c 2487 c43b
000001d0: f344 fc3c 3bba 1b3c 5f1f 6d3c fe71 593c
000001e0: 74fb 903c 5963 d63c 360c c23b 9886 163d
000001f0: 491d 733c 2cea b93c 82cd 983b a3bb fd3b

encoder.4.running_mean f4 [128]
-0.3090207 -0.2893321 0.11690416 0.04521191 -0.44690076 -0.40887603 -0.3925578 -0.18560818
-0.66297895 -0.18260448 -0.20463702 -0.21870673 -0.49340522 -0.8722191 -0.29040012 -0.31291384
-0.37446573 -0.1347361 0.016744796 -0.062286142 -0.43289912 -0.6196551 -0.07698565 -0.31262165
-0.24185233 -0.07155205 -0.05183139 -0.43889776 -0.46448016 -0.19978781 -0.405988 -0.27771363
-0.40549818 -0.00274621 -0.04238898 -0.40874267 -0.2528394 -0.47290838 -0.30909303 -0.25644702
-0.44234473 -0.19946533 -0.31637868 -0.18203722 -0.07946395 -0.7589436 -0.54060453 -0.37040365
-0.4780696 -0.42808005 -0.24146935 -0.07165661 -0.61122346 -0.24312742 -0.19886269 -0.028653553
-0.26054356 -0.10436 -0.15810902 -0.42605788 -0.32956177 -0.043879524 -0.2836496 -0.41489357
-0.22289538 -0.08841564 -0.2547058 -0.36620012 -0.2299037 -0.35846767 -0.39678904 -0.5772745
-0.31536192 -0.17135404 -0.021093521 -0.423592 -0.14696734 -0.31179324 -0.08418209 -0.092051744
-0.30790493 -0.2743538 -0.059325907 -0.39909703 -0.065282986 -0.35029322 -0.19229656 -0.3111271
-0.046477158 -0.34283277 -0.22564302 -0.29120493 -0.6278535 -0.15464577 -0.349781 -0.22944006
-0.26027635 -0.5079923 -0.43970087 -0.07050322 -0.17656963 -0.3017524 -0.04459005 -0.36870113
-0.25122246 -0.82630736 -0.28770837 -0.23381387 -0.050881904 -0.33405238 -0.2412012 -0.22239278
-0.15014502 -0.15852833 -0.18624036 -0.080419146 -0.27699876 -0.14870048 -0.46388832 -0.41908285
-0.4535059 -0.11733324 -0.30819693 -0.108289294 -0.05604602 -0.31248647 -0.3817744 -0.3916146
00000000: f637 9ebe 5623 94be 736b ef3d 2030 393d
00000010: 2dd0 e4be 3358 d1be 56fd c8be 1210 3ebe
00000020: fdb8 29bf abfc 3abe 5e8c 51be a8f4 5fbe
00000030: 9c9f fcbe c049 5fbf 53af 94be 3e36 a0be
00000040: f9b9 bfbe 43f8 09be 622c 893c c11f 7fbd
00000050: f4a4 ddbe b7a1 1ebf a7aa 9dbd f20f a0be
00000060: 23a8 77be e289 92bd 274d 54bd 35b7 e0be
00000070: 58d0 edbe 2d95 4cbe a9dd cfbe 7b30 8ebe
00000080: 759d cfbe c2f9 33bb 11a0 2dbd b846 d1be
00000090: 2a74 81be 0c21 f2be 7141 9ebe 064d 83be
000000a0: 027b e2be a440 4cbe 63fc a1be f767 3abe
000000b0: ffbd a2bd 214a 42bf 0f65 0abf 8ca5 bdbe
000000c0: 8ac5 f4be 4f2d dbbe be43 77be b3c0 92bd
000000d0: 2479 1cbf 65f6 78be a9a2 4bbe dbba eabc
000000e0: f765 85be b2ba d5bd 55e7 21be 4224 dabe
000000f0: 52bc a8be 04bb 33bd 853a 91be ee6c d4be
00000100: b03e 64be 4213 b5bd cc68 82be 957e bbbe
00000110: e06b 6bbe 1389 b7be ef27 cbbe 43c8 13bf
00000120: 1e77 a1be 6f77 2fbe 52cc acbc 0de1 d8be
00000130: 9b7e 16be 5da3 9fbe a967 acbd a085 bcbd
00000140: b7a5 9dbe 1a78 8cbe b9ff 72bd 7256 ccbe
00000150: 16b3 85bd a259 b3be 64e9 44be 0d4c 9fbe
00000160: d55e 3ebd c787 afbe f70e 67be d018 95be
00000170: 02bb 20bf 765b 1ebe 7f16 b3be 56f2 6abe
00000180: f142 85be c90b 02bf 7920 e1be fe63 90bd
00000190: abce 34be 4a7f 9abe 0ea4 36bd 65c6 bcbe
000001a0: 3ba0 80be e188 53bf 834e 93be e76c 6fbe
000001b0: 8b69 50bd ea08 abbe 73fd 76be efba 63be
000001c0: 9ebf 19be 4055 22be cbb5 3ebe cbb2 a4bd
000001d0: c8d2 8dbe f044 18be c582 edbe 0792 d6be
000001e0: ed31 e8be 694c f0bd fdcb 9dbe c7c6 ddbd
000001f0: 8390 65bd 3afe 9fbe ef77 c3be b581 c8be

encoder.4.running_var f4 [128]
0.25994644 0.5177402 0.18249337 0.6306064 0.5564121 0.3214611 0.1990842 0.1960367
0.9517493 0.11962597 0.30570316 0.3125318 0.2586368 0.7875533 0.16506757 0.34890687
0.166966 0.17417358 0.23630984 0.20896143 0.21930438 0.6639657 0.14886892 0.3391711
0.41102013 0.17601116 0.11592199 0.41334742 0.41895294 0.1716221 0.7019955 0.7912246
0.24378859 0.19531217 0.1781972 0.4041291 0.31193572 0.26594573 0.2677432 0.22083233
0.3582009 0.34104457 0.72576 0.2120061 0.10633058 0.53521293 0.28402698 0.26128915
0.580754 0.61820143 0.155365 0.1579728 0.43592054 0.83044094 0.13132903 0.19861372
0.18779363 0.43366206 0.2535691 0.4799911 0.45797977 0.16298911 0.28626347 0.42444694
0.17822891 0.12551738 0.28422835 0.4246632 0.18770956 0.2148059 0.35820502 0.72118026
0.24267435 0.16472411 0.17458518 0.37754813 0.1602121 0.44347796 0.15831813 0.15474539
0.22082998 0.2939418 0.144941 0.6544693 0.1283698 0.28633225 0.2549836 0.26590425
0.15643966 0.569553 0.24128188 0.29378286 0.6385522 0.17231846 0.6328225 0.2643171
0.19449845 0.59253025 0.53091645 0.14515689 0.2229383 0.37914026 0.13209638 0.30111545
0.15340452 0.7312522 0.46157914 0.20962264 0.13965096 0.67186767 0.24214087 0.1650768
0.21540418 0.17114173 0.16680907 0.34433874 0.1844727 0.36837512 0.41427985 0.5636705
0.49439055 0.16820812 0.3288122 0.1792218 0.18427117 0.28757623 0.32023287 0.62327373
00000000: b317 853e 9f8a 043f 8bdf 3a3e 6c6f 213f
00000010: 0671 0e3f 8d96 a43e bbdc 4b3e d8bd 483e
00000020: d8a5 733f 76fe f43d 2085 9c3e 2b04 a03e
00000030: 0b6c 843e 189d 493f 7907 293e eca3 b23e
00000040: 23f9 2a3e 8f5a 323e 35fb 713e fcf9 553e
00000050: 5491 603e a8f9 293f 1871 183e d6a7 ad3e
00000060: 3b71 d23e 453c 343e 8268 ed3d 46a2 d33e
00000070: 0081 d63e b4bd 2f3e fab5 333f b28d 4a3f
00000080: b7a3 793e eaff 473e 5479 363e 02ea ce3e
00000090: 0ab6 9f3e 0a2a 883e a315 893e df21 623e
000000a0: 1c66 b73e 659d ae3e 68cb 393f 2118 593e
000000b0: d9c3 d93d b703 093f fc6b 913e b1c7 853e
000000c0: 4bac 143f 7342 1e3f 0118 1f3e 9fc3 213e
000000d0: fa30 df3e c797 543f 1e7b 063e 6561 4b3e
000000e0: f94c 403e f408 de3e cfd3 813e 65c1 f53e
000000f0: 537c ea3e 9ee6 263e 2091 923e 1c51 d93e
00000100: a481 363e a187 003e 6186 913e 746d d93e
00000110: ef36 403e 14f6 5b3e a666 b73e 459f 383f
00000120: a07f 783e 70ad 283e 75c6 323e fd4d c13e
00000130: a40e 243e 8b0f e33e 261e 223e 9375 1e3e
00000140: 4121 623e 8a7f 963e 6a6b 143e 4d8b 273f
00000150: 5f73 033e 249a 923e 368d 823e 9a24 883e
00000160: b831 203e 3ace 113f 9912 773e b56a 963e
00000170: 2878 233f 4074 303e a800 223f 9254 873e
00000180: 9a2a 473e 10b0 173f 24ea 073f 02a4 143e
00000190: f049 643e ac1e c23e 4644 073e ce2b 9a3e
000001a0: 1316 1d3e 5833 3b3f 1a54 ec3e 51a7 563e
000001b0: a900 0f3e 85ff 2b3f c7f3 773e e509 293e
000001c0: ea92 5c3e c73f 2f3e ffcf 2a3e 2b4d b03e
000001d0: 69e6 3c3e aa9b bc3e 7d1c d43e b64c 103f
000001e0: c220 fd3e c03e 2c3e 135a a83e eb85 373e
000001f0: 95b1 3c3e 313d 933e 90f5 a33e de8e 1f3f

decoder.0.weight f4 [128, 128, 5]
-0.0068963813 0.029050995 -0.027584346 0.002825976 -0.01259836 0.0040266975 0.011836879 -0.026156489
0.016461356 -0.010271819 -0.025480347 -0.032561556 0.0017029148 -0.021206116 -0.021669943 -0.0029399837
-0.010588958 0.027217979 -0.014618241 -0.031691816 0.04320324 0.010189874 0.026101103 -0.0062986524
0.008668175 0.03756288 0.03747323 -0.026978476 -0.038864035 0.022213776 -0.030042954 -0.036561336
-0.017953103 -0.034742158 -0.02121462 0.01614017 -0.031823803 0.027109498 0.012949649 -0.017001668
0.044091735 0.0025999635 0.0071362685 -0.04474522 -0.048782047 0.025255824 0.018596785 0.0010967487
-0.007478681 0.007390647 0.00915182 -0.023687929 0.02085641 0.010352979 0.01823936 0.008617782
-0.015492241 0.004374036 0.007987067 0.022705166 0.009319093 -0.003940721 -0.022298416 -0.017197978
0.019854408 -0.025435787 0.00946028 -0.025283853 -0.028660515 -0.044874087 -0.026435545 -0.029595496
0.034601826 -0.010945041 0.037862804 -0.026044765 0.040014375 0.02141398 -0.03896835 0.0038373584
-0.005172175 -0.0109541835 0.014080548 0.021875862 0.0031394672 0.018175337 -0.017196309 -0.02954387
0.04205312 -0.015184772 -0.010922624 0.03010783 0.017034175 0.022667078 0.025733456 -0.021647787
-0.027408812 -0.0056688422 0.0044304426 -0.028185189 0.03353572 0.022688055 0.051437583 0.00848517
0.025078695 0.022222048 0.01651185 -0.011828089 0.01638422 0.016537357 -0.005406124 0.017035212
0.020008406 -0.040523265 -0.04103722 0.026204191 -0.014375604 0.03826223 -0.028335059 -0.014236776
-0.009742037 0.0382395 -0.045270156 -0.028001571 -0.008780574 -0.04172854 0.005837358 0.01695406
-0.027925018 0.002475279 -0.0027173737 0.031765543 -0.02885732 0.034713212 0.037382104 -0.0056822947
0.025702026 -0.010629342 -0.011737777 0.021587571 -0.0016486268 0.039154436 -0.018773502 -0.010391874
-0.022683159 -0.023512224 0.018357523 -0.019001557 -0.017477797 -0.024376873 -0.01172479 0.026129933
0.03073703 0.034848813 0.02408619 0.013996952 0.019948423 -0.014679962 0.031109216 0.04141092
0.028498128 -0.029488076 0.005130664 0.0015604451 -0.04577041 0.003949984 0.044246636 -0.0023804756
0.034139387 0.0054497793 -0.04152377 -0.018760793 -0.0118284095 -0.032502856 0.026793916 0.02923466
-0.013296773 0.013039434 0.015027402 0.0116551975 -0.047196764 0.0051801675 -0.03974703 -0.028139245
0.015500043 0.018978132 -0.0044022957 0.0041442295 0.0046185213 0.024086129 0.015218711 0.04604947
0.003973961 0.020601342 -0.0036215053 0.02490084 -0.024621537 -0.049861506 -0.02809766 0.024277952
-0.0025743046 -0.0034653102 -0.009027653 -0.00284332 -0.018974112 -0.025110388 0.009717459 0.017684689
0.005820429 0.0044633597 0.026309367 -0.0094893165 -0.018291501 -0.00022128927 -0.0054734186 -0.015465056
0.028839584 0.021889469 -0.025491687 0.011496066 0.025885154 0.023582172 0.056174632 0.019141879
0.030011058 0.022090545 0.031585917 -0.02961131 0.028630322 -0.025222505 0.016858505 -0.0018323557
-0.010947731 -0.035049923 -0.04097716 0.04079917 -0.031511366 0.008578118 -0.025807146 -0.0034784707
-0.03024641 0.0081358 -0.030627944 0.0330852 -0.007647414 -0.029532127 -0.026936518 -0.017182944
-0.004231433 -0.045049332 -0.008106845 0.016468853 -0.028252518 0.0003254048 -0.0012026767 -0.028241226
00000000: 0afb e1bb 5afc ed3c 91f8 e1bc 0234 393b
00000010: 5a69 4ebc 63f2 833b 78ef 413c 2246 d6bc
00000020: f7d9 863c 224b 28bc 29bc d0bc 445f 05bd
00000030: 5734 df3a 73b8 adbc 2a85 b1bc beac 40bb
00000040: 4f7d 2dbc 3df8 de3c 5981 6fbc 47cf 01bd
00000050: e1f5 303d 6ef3 263c fbd1 d53c ed64 cebb
00000060: f604 0e3c 89db 193d 887d 193d f701 ddbc
00000070: e52f 1fbd aaf9 b53c a41c f6bc 57c1 15bd
00000080: 6312 93bc cb4d 0ebd 48ca adbc 6438 843c
00000090: ad59 02bd bd14 de3c c42a 543c 1547 8bbc
000000a0: 8999 343d 2664 2a3b 5cd7 e93b c446 37bd
000000b0: afcf 47bd 4de5 ce3c 4958 983c c8c0 8f3a
000000c0: b90f f5bb 3e2d f23b 84f1 153c 300d c2bc
000000d0: 10db aa3c 8b9f 293c b66a 953c 9931 0d3c
000000e0: 2bd3 7dbc 1354 8f3b 30dc 023c 2f00 ba3c
000000f0: 1caf 183c 2a21 81bb 2bab b6bc c6e2 8cbc
00000100: b6a5 a23c b65e d0bc 4aff 1a3c 1520 cfbc
00000110: 75c9 eabc e4cd 37bd 5b8f d8bc 4172 f2bc
00000120: a5ba 0d3d d452 33bc 0716 1b3d d55b d5bc
00000130: 1de6 233d 5f6c af3c 479d 1fbd 317c 7b3b
00000140: 597b a9bb 2d79 33bc 19b2 663c 0235 b33c
00000150: 85bf 4d3b 72e4 943c 46df 8cbc fc05 f2bc
00000160: e43f 2c3d 8dc9 78bc cef4 32bc b2a4 f63c
00000170: 418b 8b3c 4fb0 b93c f8ce d23c b356 b1bc
00000180: 7288 e0bc b2c1 b9bb 3f2d 913b a0e4 e6bc
00000190: c05c 093d 4ddc b93c 37b0 523d 6205 0b3c
000001a0: d671 cd3c 030b b63c dc43 873c 9aca 41bc
000001b0: 3338 863c 5a79 873c db25 b1bb 6e8d 8b3c
000001c0: abe8 a33c b9fb 25bd a516 28bd 2caa d63c
000001d0: a787 6bbc dbb8 1c3d ed1e e8bc 5e41 69bc
000001e0: 119d 1fbc 06a1 1c3d 336d 39bd 8d63 e5bc
000001f0: 66dc 0fbc 8ceb 2abd 4f47 bf3b 3ee3 8a3c
00000200: 02c3 e4bc 4a38 223b f715 32bb 961c 023d
00000210: 3066 ecbc 712f 0e3d fa1d 193d 8b32 babb
00000220: 0e8d d23c b126 2ebc ce4f 40bc 6bd8 b03c
00000230: bc16 d8ba 6760 203d e3ca 99bc ae42 2abc
00000240: 08d2 b9bc b59c c0bc 8462 963c 27a9 9bbc
00000250: 992d 8fbc 02b2 c7bc 5519 40bc 710e d63c
00000260: 39cc fb3c a1bd 0e3d 6750 c53c 7953 653c
00000270: e06a a33c 3984 70bc c1d8 fe3c 7f9e 293d
00000280: e874 e93c fa90 f1bc 211f a83b d987 cc3a
00000290: c179 3bbd de6e 813b f63b 353d c101 1cbb
000002a0: bed5 0b3d 1094 b23b d414 2abd 3cb0 99bc
000002b0: f2cb 41bc b721 05bd ea7e db3c 877d ef3c
000002c0: b5da 59bc 5aa3 553c 7e35 763c 71f5 3e3c
000002d0: 6551 41bd 65be a93b c8cd 22bd 4684 e6bc
000002e0: e4f3 7d3c 0778 9b3c 2241 90bb 51cc 873b
000002f0: f756 973b 4650 c53c e757 793c 5e9e 3c3d
00000300: 0038 823b 25c4 a83c c756 6dbb d9fc cb3c
00000310: 1bb3 c9bc 943b 4cbd 102d e6bc 8ee2 c63c
00000320: aab5 28bb 421a 63bb b9e8 13bc fe56 3abb
00000330: 996f 9bbc 4db4 cdbc fa35 1f3c 7bdf 903c
00000340: 4cb9 be3b 6041 923b be86 d73c 1479 1bbc
00000350: 0fd8 95bc e309 68b9 5d5a b3bb 2561 7dbc
00000360: fe40 ec3c 8b51 b33c f1d3 d0bc ff59 3c3c
00000370: 1a0d d43c 662f c13c 5f17 663d 6ecf 9c3c
00000380: c0d9 f53c 3bf7 b43c 3c60 013d 6b93 f2bc
00000390: 238a ea3c 6d9f cebc d91a 8a3c a82b f0ba
000003a0: 1d5e 33bc 8290 0fbd abd7 27bd 081d 273d
000003b0: 1012 01bd 3c8b 0c3c 8269 d3bc 0ef7 63bb
000003c0: 52c7 f7bc 054c 053c 74e7 fabc 5984 073d
000003d0: 2997 fabb 5ced f1bc f9a9 dcbc 3fc3 8cbc
000003e0: d5a7 8abb a685 38bd 93d2 04bc b0e9 863c
000003f0: d371 e7bc 189b aa39 22a3 9dba 255a e7bc
